07.Olympic/train_history/actor.pth (torch, 47899 bytes, 14 tensors)

encoder.encoder.0.weight f4 [8, 4, 3, 3]
0	0xbe89cd0b	-0.26914248
1	0xbeb7d1eb	-0.35902342
2	0xbe9d7ae9	-0.30757836
3	0x3c37e5cf	0.011224224
4	0xbea683c0	-0.32522392
5	0xbd1b8107	-0.037964847
6	0xbdf5d603	-0.1200371
7	0x3e63f44a	0.22261158
8	0xbe8cb4dd	-0.27481738
9	0x3d131d77	0.03591677
10	0x3e37c619	0.17946662
11	0xbeb2e784	-0.34942257
12	0x3d4c1d39	0.049832556
13	0x3e54af77	0.2077006
14	0x3cf75a65	0.03019447
15	0xbd5ec758	-0.054389328
16	0x3e6401cf	0.22266315
17	0xbdb030cb	-0.086030565
18	0xbe620cdb	-0.22075216
19	0x3e2dc108	0.16968167
20	0xbdf7e8a1	-0.12104917
21	0xbdabb984	-0.08384994
22	0xbe2ed98d	-0.17075177
23	0xbe926316	-0.28591222
24	0xbed82f77	-0.42223713
25	0xbb4d7179	-0.0031348153
26	0x3dd2b64c	0.102886766
27	0x3f141231	0.5784026
28	0x3e9566e1	0.29180053
29	0x3ea6f1ce	0.32606357
30	0xbf034844	-0.51282144
31	0xbcf84dec	-0.030310594
32	0x3e76cb86	0.24101076
33	0x3dcd9b27	0.100393586
34	0xbe2e9b91	-0.17051531
35	0xbe04d030	-0.12970042
36	0x3e9a7546	0.30167598
37	0xbdef9290	-0.116978765
38	0x3e5aefc2	0.21380523
39	0xbebbcd32	-0.3667999
40	0x3cf52e18	0.029929206
41	0x3e4523c3	0.19251923
42	0xbe1df2e0	-0.1542468
43	0x3cd2565e	0.025675949
44	0x3e222317	0.15833698
45	0x3d1b5b40	0.03792882
46	0xbde588c3	-0.11207726
47	0x3e205e21	0.15660907
48	0x3e5b963f	0.21444033
49	0x3d5c2b4a	0.05375222
50	0xbe9c6972	-0.30549198
51	0x3df72748	0.12068039
52	0xba918b64	-0.0011104164
53	0xbe406478	-0.18788326
54	0x3cdd4c32	0.027013872
55	0x3f032604	0.5122988
56	0xbe80f844	-0.25189412
57	0xbf2a515f	-0.6653041
58	0xbca3b91f	-0.019985734
59	0xbe8eb78e	-0.27874416
60	0x3eeda40b	0.46414217
61	0x3e5c61bc	0.21521658
62	0x3e48cc76	0.19609246
63	0xbe2ad28d	-0.16681881
64	0x3e89c9fb	0.2691191
65	0x3e049663	0.12947993
66	0xbe88c1f5	-0.26710477
67	0x3db873c4	0.090064555
68	0x3d6f35f3	0.05840106
69	0x3ddc3459	0.10752172
70	0xbea0be56	-0.31395215
71	0x3e110f1c	0.1416592
72	0x3c9def24	0.01927907
73	0xbe4204fe	-0.18947217
74	0xbd398617	-0.045293894
75	0x3e7a7b67	0.24461137
76	0xbeeb29c8	-0.45930314
77	0xbda930dd	-0.08261273
78	0x3e45d973	0.19321232
79	0x3d6c7ee8	0.057738215
80	0xbd0379a3	-0.032098424
81	0xbea16ba4	-0.31527436
82	0xbe4f375f	-0.20235966
83	0x3d929eba	0.07159181
84	0x3e6540cc	0.22388
85	0x3b954680	0.0045555234
86	0x3ec04dbc	0.37559307
87	0x3e96c5a0	0.2944765
88	0x3d8a82ec	0.067632526
89	0xbdc32546	-0.09528594
90	0x3ee0f692	0.43938118
91	0x3e958cb8	0.29208922
92	0xbea50d19	-0.32236555
93	0xbcb9e52e	-0.02269229
94	0x3e0dfdac	0.138663
95	0xbcd1ff81	-0.02563453
96	0xbdc9d0a7	-0.098542504
97	0xbed06f2a	-0.4070981
98	0xbbe570e2	-0.007001982
99	0xbee506ef	-0.44731852
100	0xbe2e95b8	-0.170493
101	0x3d5c8323	0.053836
102	0xbd9eddf2	-0.077571765
103	0xbefdb7a0	-0.49554157
104	0x3efbf08c	0.4920696
105	0x3d452a23	0.048135888
106	0x3e571be2	0.2100673
107	0xbd3aba6b	-0.04558794
108	0x3d0cfab9	0.034418795
109	0x3daa6003	0.08319094
110	0x3e6a714c	0.22894782
111	0x3c747e7b	0.014922733
112	0xbe793dd0	-0.24339986
113	0xbc85cf67	-0.016334249
114	0x3e3b2c84	0.182787
115	0x3df16ad1	0.11787952
116	0xbdd660d2	-0.10467686
117	0x3d1536b0	0.036429107
118	0x3d7cc9e5	0.06171598
119	0xbb1fa2bd	-0.0024358474
120	0xbf23f685	-0.64048034
121	0xbe6faf15	-0.23406632
122	0x3e157671	0.14595963
123	0xbe9719ca	-0.29511863
124	0x3e8ec9a9	0.2788823
125	0x3dc365e2	0.09540917
126	0xbec401d5	-0.38282648
127	0x3db09675	0.086224474
128	0xbe8a541f	-0.27017304
129	0x3e201a38	0.15635002
130	0x3eba717e	0.36414713
131	0x3dec06ca	0.115247324
132	0x3ecbd67c	0.39812076
133	0xbb64d996	-0.003491973
134	0x3eb0f58e	0.34562343
135	0xbe80bf75	-0.2514607
136	0xbe6d3487	-0.23164569
137	0x3e444ff6	0.19171128
138	0xbec0082b	-0.37506232
139	0x3e12e337	0.14344488
140	0x3bfc8d77	0.0077072936
141	0xbead39de	-0.33833212
142	0xbd268b2f	-0.04066008
143	0xbe86c57d	-0.26322547
144	0x3ddf3231	0.10898245
145	0x3e386764	0.1800819
146	0xbdb82752	-0.08991875
147	0x3ea46041	0.32104686
148	0xbe3310f1	-0.17486931
149	0xbe0f81a1	-0.14014293
150	0x3c9fd423	0.019510334
151	0x3f05d68b	0.5228049
152	0xbd2fea19	-0.042947862
153	0xbe47bc94	-0.1950553
154	0x3ea6614d	0.3249611
155	0x3e3f52c9	0.18683924
156	0x3dfd95b9	0.12382073
157	0x3e795512	0.24348858
158	0xbebe8ee5	-0.37218395
159	0xbe086ee9	-0.13323559
160	0xbcc311a9	-0.023812132
161	0xbe57412e	-0.21020958
162	0x3e451579	0.19246472
163	0xbead12cf	-0.33803412
164	0xbe2a767e	-0.16646764
165	0xbd878326	-0.066168115
166	0x3dda746c	0.10666737
167	0x3e243d6d	0.16039057
168	0x3f037045	0.51343185
169	0xbe981e33	-0.2971054
170	0xbeb5c6cf	-0.3550324
171	0x3ea82d77	0.32847187
172	0x3e671abe	0.22568795
173	0x3e20c108	0.15698636
174	0x3d3ecc8f	0.0465818
175	0x3c997e3f	0.018736957
176	0x3c8f22b1	0.017472597
177	0xbec219d8	-0.37910342
178	0x3e388b27	0.18021832
179	0x3daf59d4	0.08562055
180	0x3e8f5c1b	0.27999958
181	0xbef25502	-0.4733048
182	0xbe8347d0	-0.25640726
183	0xbcf29ab5	-0.029614786
184	0xbdbdd3c2	-0.09268905
185	0xbdb68582	-0.08912183
186	0x3d74dcb8	0.059780806
187	0xbeb5d4ec	-0.3551401
188	0x3e32de20	0.17467546
189	0x3eead520	0.45865726
190	0xbd9b8003	-0.07592776
191	0xbdd902e6	-0.10596256
192	0x3e80d6fe	0.25164026
193	0xbdd04996	-0.101702854
194	0x3da3e016	0.080017254
195	0xbd1e3431	-0.038623992
196	0x3e1b6a4c	0.15177268
197	0x3e7878bf	0.24264811
198	0xbd45e9b1	-0.04831857
199	0xbd380463	-0.04492606
200	0x3eb6d25c	0.35707366
201	0x3e14cb1e	0.14530608
202	0x3ed4cd82	0.4156304
203	0x3e182282	0.14856914
204	0x3f0712c5	0.52763015
205	0xbe7854ad	-0.24251051
206	0x3e4334dc	0.19063133
207	0x3eab2dd0	0.3343339
208	0x3e34065e	0.17580554
209	0xbd1f68d7	-0.038918342
210	0x3e03846a	0.1284348
211	0xbe87fb90	-0.26559114
212	0x3eb0b825	0.3451549
213	0x3d01c137	0.031678405
214	0xbe3b7a86	-0.18308458
215	0xbd7e155e	-0.062032096
216	0xbe1dc4a3	-0.15407042
217	0x3e108f75	0.14117225
218	0xbdd04930	-0.101702094
219	0x3e0c81a7	0.13721333
220	0xbdd3cbb2	-0.10341586
221	0xbdb3e500	-0.08783913
222	0x3e62c426	0.22145137
223	0xbe75a010	-0.2398684
224	0xbdaaf307	-0.08347135
225	0x3ee5cfe0	0.4488516
226	0x3ea0e4b7	0.31424496
227	0x3e7859ca	0.24253002
228	0x3e0cb8dc	0.13742393
229	0xbe440eff	-0.19146346
230	0x3dca941d	0.098915316
231	0x3e60e36e	0.21961758
232	0xbd5b9c64	-0.053615943
233	0xbdf26183	-0.11835005
234	0x3ef02b3c	0.46907985
235	0x3eac63f5	0.3367001
236	0x3d347df1	0.04406542
237	0x3e7e0a5c	0.2480864
238	0xbdad9cd9	-0.08477182
239	0x3de0430d	0.10950289
240	0xbdfb87bb	-0.12281748
241	0x3d05516c	0.032548353
242	0x3e5dc081	0.21655466
243	0xbe2e1045	-0.16998394
244	0x3f11179c	0.5667665
245	0x3eadf11d	0.33973017
246	0x3d69742b	0.056995552
247	0x3e6f4019	0.23364295
248	0xbeb3f85b	-0.35150418
249	0xbe81b63c	-0.25334346
250	0xbd4211b9	-0.047380183
251	0xbeaaddfe	-0.33372492
252	0xbdc1ee6b	-0.09469303
253	0x3e68ed92	0.22746876
254	0x3ed58616	0.41703862
255	0x3f0c3eae	0.5478314

encoder.encoder.0.bias f4 [8]
0	0xbb75f912	-0.003753249
1	0xbbc64f7c	-0.0060519557
2	0x3a52cd2d	0.0008041438
3	0x3ba013af	0.004885159
4	0xba8d7be7	-0.0010794372
5	0xbc99fb6f	-0.01879665
6	0xba047060	-0.00050521456
7	0x3b021d44	0.001985387

encoder.encoder.3.weight f4 [8, 8, 3, 3]
0	0x3df57717	0.11985605
1	0x3dfe768a	0.12424953
2	0xbea90df6	-0.33018464
3	0x3e614d7e	0.22002217
4	0x3e34589c	0.17611927
5	0xbd01ab8a	-0.031657733
6	0xbd117347	-0.035510328
7	0xbde6bdbb	-0.11266657
8	0xbd6cf4e0	-0.05785072
9	0x3dc8e2a5	0.09808854
10	0xbe0242e2	-0.12720826
11	0xbdc76602	-0.09736253
12	0x3de97ca6	0.11400728
13	0x3e1b4e6f	0.15166639
14	0xbe0ba8d9	-0.13638629
15	0xbd119973	-0.03554673
16	0x3d798be2	0.06092442
17	0x3e39dcba	0.18150607
18	0xbe030097	-0.12793194
19	0xbd4421e7	-0.047883894
20	0x3a9846a7	0.0011617736
21	0x3e85b982	0.26118094
22	0x3df56385	0.119818725
23	0xbe29c070	-0.16577315
24	0xbcfbfaec	-0.030759297
25	0x3cd4f644	0.025996335
26	0x38b63782	8.6887754e-05
27	0xbe57e398	-0.21082914
28	0xbe4bdf0a	-0.19909301
29	0xbd80b8bb	-0.062852345
30	0x3e477feb	0.1948239
31	0xbe8c8de3	-0.27452
32	0xbdbd6493	-0.09247699
33	0x3e47d91f	0.19516419
34	0xbd8e392c	-0.069444984
35	0xbe60da36	-0.21958241
36	0x3cf71b36	0.030164342
37	0xbed3a03d	-0.4133319
38	0xbd877733	-0.06614532
39	0x3e452564	0.19252545
40	0xbcf6fb6a	-0.03014918
41	0xbe4c73c9	-0.19966044
42	0xbd6194f8	-0.05507371
43	0xbcc8c309	-0.024507063
44	0xbe8b3762	-0.2719069
45	0x3d931af0	0.07182872
46	0x3e32bec9	0.17455591
47	0xbe1c1dec	-0.1524579
48	0x3ec4a044	0.38403523
49	0x3ea36f02	0.3192063
50	0x3dc8aefb	0.09799
51	0x3e512527	0.20424329
52	0xbc57bfb7	-0.013168267
53	0xbe325465	-0.17415006
54	0xbe1278f9	-0.1430396
55	0xbe347933	-0.17624359
56	0x3bfe5109	0.007761125
57	0x3a9d772f	0.0012013669
58	0xbe082780	-0.13296318
59	0xbdd92a85	-0.10603813
60	0xbedc8a8b	-0.4307445
61	0x3dcdf02a	0.10055573
62	0x3d103d5d	0.03521477
63	0x3d9d398c	0.07676992
64	0xbe860546	-0.26175898
65	0xba951d62	-0.0011376555
66	0xbcfeeaab	-0.031117758
67	0x3d8866ff	0.0666027
68	0xbd0be563	-0.034154307
69	0xbe3e95de	-0.18611857
70	0xbe744bc7	-0.23857032
71	0xbd3f3c8e	-0.04668861
72	0x3e22024e	0.15821192
73	0xbf03af62	-0.5143949
74	0x3eb43f96	0.35204762
75	0xbcedb7e2	-0.029018346
76	0xbdb3b0d5	-0.087739624
77	0x3e02dc09	0.12779249
78	0x3e4ef35a	0.20210019
79	0xbc0b87c3	-0.008516255
80	0x3c717a86	0.0147386845
81	0xbea645cc	-0.32475126
82	0xbc8bf0cc	-0.017082594
83	0xbe04b263	-0.12958674
84	0x3d32cce5	0.043652434
85	0x3d91b77d	0.07115076
86	0x3b6b775a	0.0035929293
87	0xbe841ad5	-0.2580172
88	0x3e850865	0.25982967
89	0x3dab7cd2	0.08373417
90	0x3e26e5a7	0.16298543
91	0xbe54771e	-0.20748565
92	0x3e1917e0	0.14950514
93	0x3d9aee13	0.0756494
94	0x3d659982	0.0560546
95	0xbd34760f	-0.044057902
96	0x3dc4945c	0.0959861
97	0xbe244460	-0.16041708
98	0x3db98897	0.090592556
99	0x3e502ca3	0.20329528
100	0x3e709a1b	0.23496287
101	0xbdf6f0a0	-0.12057614
102	0xbd860a88	-0.065449774
103	0x3e258467	0.16163789
104	0xbb5c2f66	-0.0033597588
105	0xbd3b9114	-0.045792654
106	0x3e831035	0.25598302
107	0xbd89aa8f	-0.067219846
108	0xbe56c583	-0.20973782
109	0x3cd15e12	0.025557552
110	0xbe5c3abd	-0.21506782
111	0x3e626c4e	0.22111627
112	0xbeaba542	-0.3352452
113	0xbea23b75	-0.31685987
114	0xbd26d7c2	-0.040733106
115	0xbda793c6	-0.081824824
116	0xbdaceb03	-0.084432624
117	0x3ebb690f	0.3660359
118	0x3c738808	0.014863975
119	0x3d136f2e	0.0359947
120	0x3d18b8ac	0.03728549
121	0x3e2b8af1	0.1675222
122	0x3ec4d7b8	0.3844583
123	0xbd32bcb9	-0.04363701
124	0xbcc13e47	-0.023589266
125	0xbe1f66bb	-0.15566532
126	0xbd9f7459	-0.077858634
127	0x3cea835b	0.028627088
128	0xbe2ad360	-0.16682196
129	0xbdb675b1	-0.089091666
130	0x3e2cf0da	0.16888753
131	0x3d00604e	0.031341843
132	0xbddd05b5	-0.10792104
133	0x3e201e90	0.15636659
134	0xbd717bce	-0.05895596
135	0x3df62cd1	0.12020267
136	0xbc7d1682	-0.015447261
137	0x3d7306a6	0.059332512
138	0x3d4dfb57	0.050288524
139	0xbe3ad32d	-0.1824462
140	0xbe4807cc	-0.19534224
141	0x3da156bb	0.07877871
142	0xbded4dc1	-0.11587096
143	0xbdb218c2	-0.086961284
144	0xbe4c1ab3	-0.1993206
145	0xbdf94b33	-0.12172546
146	0x3e2e37b5	0.17013438
147	0x3e507dfc	0.20360559
148	0xbdd11c52	-0.1021048
149	0xbec7b82b	-0.39007697
150	0xbe0eef35	-0.13958438
151	0x3d6c3f6b	0.057677668
152	0x3e8aa64a	0.27079993
153	0xbd4f2440	-0.05057168
154	0xbe8a8012	-0.27050835
155	0xbdcd3453	-0.10019746
156	0xbe0485f9	-0.12941732
157	0xbdaffe77	-0.08593457
158	0xbe302358	-0.17200983
159	0xbe3007d2	-0.17190483
160	0x3e4ecb66	0.20194778
161	0xbe250b7c	-0.16117662
162	0xbdb22c4f	-0.086998574
163	0x3e16c5fd	0.14723964
164	0x3e08b46f	0.1335008
165	0x3dc2a153	0.095034264
166	0x3e166946	0.14688596
167	0xbe86eb55	-0.2635142
168	0xbe03a41c	-0.12855572
169	0x3ea65f15	0.32494417
170	0xbd3cb4ed	-0.04607098
171	0x3d940b21	0.07228685
172	0xbeb90f97	-0.36144707
173	0x3dc7f4f8	0.09763521
174	0x3ed706cb	0.4199737
175	0x3e65fe36	0.22460255
176	0x3d8c707d	0.06857393
177	0x3cda84b8	0.026674613
178	0x3df53b53	0.11974206
179	0xbe089859	-0.13339366
180	0x3db915c3	0.09037354
181	0xbe3f8c5c	-0.18705887
182	0xbe939569	-0.28824928
183	0x3da34e3f	0.07973909
184	0x3e17416a	0.14771047
185	0xbda2469b	-0.07923623
186	0xbe4eddc5	-0.20201786
187	0xbda27830	-0.0793308
188	0x3e46136b	0.19343345
189	0x3d654cb0	0.055981338
190	0xbe4497fd	-0.19198604
191	0xbdb43e2f	-0.08800923
192	0x3c2cc963	0.010546061
193	0x3dd93491	0.10605729
194	0xbe4106c8	-0.18850243
195	0xbd1fce46	-0.039015077
196	0xbdab4490	-0.08362687
197	0x3dd0db73	0.101981066
198	0x3e0d559d	0.1380219
199	0x3d365ef6	0.044524156
200	0x3e6a3545	0.22871883
201	0x3e6b095d	0.2295279
202	0x3ea6d310	0.32582903
203	0x3eac1392	0.3360868
204	0xbc37eb65	-0.011225556
205	0x3c9175bd	0.017756337
206	0xbe465702	-0.19369128
207	0x3e1a66b6	0.15078244
208	0x3dae538e	0.085120305
209	0x3da16503	0.078805946
210	0xbc90a7a0	-0.017658055
211	0x3df9b3ac	0.12192473
212	0xbc9f559c	-0.019450001
213	0x3d270d00	0.040783882
214	0x3dfab5e1	0.12241722
215	0x3b356423	0.0027678094
216	0xbd7a5c5e	-0.061123244
217	0x3daa1db5	0.083064474
218	0xbe0699db	-0.13144629
219	0x3d2de184	0.042451397
220	0x3dc4378e	0.09580909
221	0x3e1d38be	0.15353677
222	0x3e9b9d6c	0.3039354
223	0xbd6c6d31	-0.05772132
224	0xbe59ee34	-0.21282274
225	0x3e8e4b03	0.27791604
226	0xbda9e461	-0.08295513
227	0xbe0e70f2	-0.13910273
228	0xbd27294d	-0.040810872
229	0x3d65b43c	0.056080088
230	0x3d9843b6	0.0743479
231	0x3dea7b20	0.114492655
232	0x3dce5f0e	0.10076724
233	0x3d0e4705	0.0347357
234	0xbe1e99a1	-0.15488292
235	0xbe005a5a	-0.12534466
236	0xbe3f2594	-0.18666679
237	0x3e183e18	0.14867437
238	0x3df62c10	0.12020123
239	0x3dcb9ae3	0.09941652
240	0x3e320bd1	0.1738732
241	0xbc8a47a8	-0.016879871
242	0xbe98b5c3	-0.29826173
243	0x3daa68a0	0.08320737
244	0xbe2ad8b4	-0.16684228
245	0x3e06af21	0.13152744
246	0x3e73ea45	0.23819835
247	0x3dd0449c	0.10169336
248	0xbea3650c	-0.3191303
249	0x3e9cb8be	0.30609697
250	0xbde39570	-0.11112487
251	0xbd33aaec	-0.043864176
252	0x3e98599c	0.29755867
253	0x3e66aa72	0.22525957
254	0xbe4a46ae	-0.19753525
255	0xbe48ea68	-0.19620669

encoder.encoder.3.bias f4 [8]
0	0x3bdfa9e2	0.0068256715
1	0x38fac008	0.000119566976
2	0x3c865e97	0.016402526
3	0xbc335584	-0.0109456815
4	0xbac32500	-0.0014888346
5	0x3bd789dc	0.0065777134
6	0xba0594cc	-0.000509572
7	0xbc92b675	-0.017909268

cnn_net.0.weight f4 [16, 8, 3, 3]
0	0x3ce31709	0.027720945
1	0xbe71e237	-0.2362145
2	0xbe2712bc	-0.1631574
3	0x3ecd6421	0.40115455
4	0x3e701627	0.2344595
5	0xbd6688f2	-0.056282945
6	0x3e36a3d8	0.17835939
7	0x3e92ad5e	0.28647894
8	0xbdbfc020	-0.09362817
9	0x3e3babb2	0.18327215
10	0xbdc7a9c0	-0.09749174
11	0x3c869065	0.016426275
12	0x3e22ce39	0.1589898
13	0xbdfed890	-0.1244365
14	0x3cd6d2ed	0.026223624
15	0x3e849d8b	0.25901446
16	0x3d9c7501	0.07639504
17	0x3e515db8	0.20445907
18	0xbe30be6a	-0.17260137
19	0xbe1bec0f	-0.15226768
20	0x3e2e6dcc	0.17034072
21	0x3e0caa26	0.13736781
22	0x3df64d96	0.12026517
23	0xbd9dacbc	-0.07698962
24	0x3eb0a862	0.34503466
25	0xbdd8d8ad	-0.105882026
26	0x3d06d7b7	0.032920565
27	0x3e598376	0.21241555
28	0x3ea40a85	0.32039276
29	0xbb4e7082	-0.0031500165
30	0xbd845315	-0.06461159
31	0x3e62cb1d	0.22147794
32	0x3c8fe6fb	0.017566195
33	0x3d3a61a2	0.045503266
34	0x3da86e6f	0.082241885
35	0x3c75c9a4	0.015001688
36	0x3d9cfdc7	0.07665592
37	0xbe3172ce	-0.17328951
38	0xbd72b94c	-0.059258744
39	0x3e25d61a	0.16194955
40	0x3dc09a1e	0.094043955
41	0x3c9b8189	0.018982666
42	0x3e041285	0.1289769
43	0xbe0fbf2f	-0.14037775
44	0xbd625ea6	-0.055266045
45	0x3e90069f	0.28130051
46	0x3c22a09c	0.009925988
47	0xbe432727	-0.19057904
48	0x3dc6efb1	0.09713686
49	0x3e4f917f	0.20270346
50	0xbdea8565	-0.11451224
51	0xbe6ded93	-0.23235159
52	0xba9811fb	-0.0011602038
53	0xbd013a0b	-0.031549495
54	0xbc0aa777	-0.008462778
55	0xbe140376	-0.14454445
56	0x3de7cf26	0.11318807
57	0x3e1b0d38	0.15141761
58	0xbeb573c0	-0.35439873
59	0xbddf174a	-0.10893114
60	0x3c2ecf6b	0.0106695695
61	0x3d8b9f84	0.068175346
62	0x3de10730	0.10987699
63	0x3ec43b82	0.3832665
64	0xbeb1fdfe	-0.34764093
65	0xbdab4f62	-0.083647504
66	0x3d932643	0.07185032
67	0xbe32ebe0	-0.17472792
68	0xbdb1dc30	-0.086845756
69	0xbd291713	-0.04128177
70	0xbc098e78	-0.008395784
71	0x3e474af0	0.1946218
72	0x3e753d0d	0.2394907
73	0x3b89ed9b	0.004209233
74	0xbdfba599	-0.122874446
75	0xbde02374	-0.10944262
76	0x3daf2985	0.08552841
77	0x3e30257c	0.17201799
78	0x3de5184b	0.11186274
79	0xbc99d350	-0.01877752
80	0x3d2f5736	0.04280778
81	0x3ea7c3a0	0.32766438
82	0xbd5d79d4	-0.054071262
83	0xbe38211b	-0.17981379
84	0x3e172455	0.14759953
85	0xbd4bd967	-0.049767878
86	0x3c492edd	0.0122792395
87	0x3e9435c0	0.28947258
88	0x3e009429	0.12556519
89	0x3d5d5ea2	0.054045327
90	0x3e486eef	0.19573568
91	0x3d999bb2	0.075004
92	0xbd3e5a7e	-0.04647302
93	0x3d997601	0.074932106
94	0x3e8410d6	0.25794095
95	0xbc9af470	-0.018915385
96	0xbe237d3f	-0.15965746
97	0xbc6db6f2	-0.01450895
98	0x3e5e61bf	0.21716975
99	0xbe5ceb46	-0.21574125
100	0x3ce1c083	0.027557617
101	0xbe495c8c	-0.1966421
102	0xbde6afbb	-0.11263987
103	0x3d90ff59	0.07079954
104	0xbdb610e9	-0.08889944
105	0x3dd98d33	0.10622635
106	0xbd602e73	-0.054731797
107	0x3e38a256	0.18030676
108	0xbede0333	-0.43361816
109	0xbde3c02b	-0.111206375
110	0xbd65b500	-0.05608082
111	0xbedd16d1	-0.4318147
112	0x3cfedbe8	0.031110719
113	0x3dd365c9	0.10322148
114	0xbe1372e5	-0.14399298
115	0x3a750846	0.0009347241
116	0xbeb51bcd	-0.35372773
117	0x3e78b351	0.24287154
118	0x3c12296d	0.0089210095
119	0xbe53e7a7	-0.20693837
120	0x3dcc44e5	0.09974078
121	0xbe2b2644	-0.16713816
122	0xbe455489	-0.19270529
123	0x3dd68e50	0.10476363
124	0x3e73a56d	0.23793574
125	0xbe813ee9	-0.2524331
126	0x3d8ee2c0	0.06976843
127	0x3d497750	0.04918605
128	0xbde7f0ba	-0.11325212
129	0x3d26531f	0.040606614
130	0x3e71cba2	0.23612836
131	0x3dfaf5cb	0.122539125
132	0xbd976f63	-0.07394292
133	0xbe4e347c	-0.20137209
134	0xbbbfaee4	-0.005849706
135	0xbdb74920	-0.08949494
136	0xbe7d278d	-0.24722119
137	0x3e5e895b	0.21732084
138	0x3e2f861e	0.17141005
139	0x3eaeecef	0.3416514
140	0xbdfd45c3	-0.123668216
141	0x3d7b2f66	0.0613245
142	0xbde4a05f	-0.11163401
143	0x3a8be807	0.0010674008
144	0x3d97212d	0.07379375
145	0x3ca9fae3	0.020749515
146	0x3d1fcced	0.03901379
147	0x3c81ef8b	0.015861293
148	0x3d7e17bc	0.062034354
149	0xbd75d652	-0.060018845
150	0xbe5f0ec5	-0.21782978
151	0x3eb4dfc3	0.35326967
152	0x3e34a643	0.17641549
153	0x3e262c01	0.16227724
154	0xbe3a16a9	-0.18172707
155	0x3dbc331b	0.09189435
156	0xbe2b769d	-0.16744466
157	0x3e1e0682	0.1543217
158	0xbd2c19f5	-0.042016942
159	0x3da11ce2	0.07866837
160	0x3dd67200	0.104709625
161	0x3d20d2c3	0.039263498
162	0x3dcf2453	0.1011435
163	0x3da31437	0.0796284
164	0x3dff226f	0.124577396
165	0xbe0289e8	-0.1274792
166	0xbdd918d3	-0.10600438
167	0x3e77bcb0	0.24193072
168	0x3d781036	0.060562335
169	0x3dd4a94a	0.10383852
170	0xbed7afb4	-0.42126238
171	0x3ec052e5	0.37563244
172	0x3e1be31e	0.15223357
173	0xbe81faa6	-0.25386542
174	0x3c6f94e2	0.014622899
175	0xbe22af22	-0.1588712
176	0xbe668e4d	-0.22515221
177	0xbea2c4f2	-0.31790882
178	0x3d0a8a81	0.033823494
179	0xbe6b0e0e	-0.2295458
180	0x3c352cae	0.011058016
181	0x3e96fc56	0.29489392
182	0xbdbe1b9d	-0.092826106
183	0xbe80f23c	-0.2518481
184	0x3e28fbca	0.165023
185	0xbd8fdbcb	-0.07024344
186	0x3e8c2ec6	0.27379435
187	0x3dd4c9e9	0.10390074
188	0x3e7a2bc6	0.2443076
189	0x3e1430a1	0.14471675
190	0x3dc43a38	0.09581417
191	0x3e36dc13	0.17857389
192	0x3dc038b7	0.093858175
193	0x3e38ac69	0.1803452
194	0x3bb06037	0.0053825635
195	0x3c9b2059	0.018936323
196	0x3dbe29c3	0.09285309
197	0xbe2436a0	-0.16036463
198	0x3b238552	0.0024951291
199	0x3dd5909d	0.104279734
200	0xbea7d337	-0.32778332
201	0xbe312030	-0.17297435
202	0x3e27d3e0	0.16389418
203	0x3e04b091	0.1295798
204	0x3dff1e7f	0.124569885
205	0xbc127c19	-0.00894072
206	0x3db35420	0.0875628
207	0xbd9a3d0a	-0.075311735
208	0xbe65eb9e	-0.22453162
209	0xbc2d7ae9	-0.010588386
210	0x3de6007d	0.11230562
211	0xbc02c1e1	-0.007980795
212	0xbea1c3f8	-0.31594825
213	0x3c4d0a38	0.012514643
214	0xbd6c745c	-0.057728156
215	0xbe69dd30	-0.22838283
216	0xbe3e36f3	-0.18575649
217	0xbe459440	-0.19294834
218	0x3d6a0f98	0.057143778
219	0x3e8fd829	0.28094605
220	0xbbe4d645	-0.0069835507
221	0xbb39aa2c	-0.002833019
222	0xbe831b0d	-0.25606576
223	0xbce903ba	-0.02844416
224	0x3e001f5b	0.12511961
225	0x3e5e4671	0.21706559
226	0x3d674738	0.056464404
227	0xbe042240	-0.1290369
228	0x3eabee39	0.33580187
229	0xbd4a9fc0	-0.049468756
230	0x3e16e754	0.14736682
231	0x3c8a68e9	0.016895728
232	0xbe10bb26	-0.14133891
233	0x3e093be4	0.13401753
234	0x3e3ae28a	0.1825048
235	0x3e0d2280	0.13782692
236	0x3ddf2d39	0.108972974
237	0x3cdf6864	0.027271457
238	0xbda1f6b2	-0.079083815
239	0x3ead0ebf	0.33800313
240	0xbe157434	-0.14595109
241	0xbe0b6f12	-0.13616589
242	0xbe2e5639	-0.17025079
243	0xbd967ade	-0.07347654
244	0x3d725116	0.05915936
245	0xbe3ca893	-0.18423681
246	0x3e57ee4b	0.21086995
247	0x3e6870f5	0.2269934
248	0xbde099f7	-0.109668665
249	0xbdd23128	-0.10263282
250	0x3dde1b04	0.108449966
251	0x3ee2430b	0.44191775
252	0x3c22590c	0.009908926
253	0xbd2c1a86	-0.042017482
254	0x3c5ee6ab	0.0136048
255	0xbdfff7db	-0.124984466

cnn_net.0.bias f4 [16]
0	0xbb8aac9b	-0.004232002
1	0xba0a2978	-0.00052704616
2	0x3bb0b05a	0.0053921165
3	0x3b77e403	0.0037825115
4	0x3c174cdb	0.009234632
5	0x3b4de780	0.0031418502
6	0xbbbf2268	-0.005832959
7	0xbb90622a	-0.0044062333
8	0xbb0015cc	-0.0019544242
9	0x3ad8afda	0.00165319
10	0x3a85d15d	0.001020949
11	0xb9058622	-0.00012733837
12	0xbb7ed987	-0.003888698
13	0x3a87b37b	0.0010353172
14	0x3bb36f86	0.005475941
15	0x3bbed383	0.005823554

cnn_net.3.weight f4 [32, 16, 3, 3]
0	0x3e129155	0.14313252
1	0xbdf08f3d	-0.117460705
2	0x3d6fa810	0.058509886
3	0x3d9706ca	0.07374342
4	0xbde1cb23	-0.110250734
5	0x3d904ccb	0.07045897
6	0xbdcd8f9d	-0.10037158
7	0xbd0318cb	-0.032006066
8	0xbd9004fb	-0.070322
9	0xbe24ce6c	-0.16094369
10	0x3dd70bb2	0.105002776
11	0x3cc3824a	0.023865838
12	0xbc69aee4	-0.014262889
13	0x3e559d05	0.2086068
14	0x3e0d021b	0.13770334
15	0x3e715d41	0.2357073
16	0xbe4648fe	-0.19363782
17	0x3d84aad5	0.06477896
18	0x3d0f74bf	0.035023447
19	0xbded2307	-0.115789466
20	0x3dfdee35	0.1239895
21	0xbdd320b5	-0.10308973
22	0xbbcf1462	-0.0063195685
23	0xbdb37f3b	-0.08764502
24	0x3e9090e5	0.28235546
25	0x3e62d70f	0.22152351
26	0xbe5d90ee	-0.21637318
27	0xbc93cf75	-0.01804326
28	0x3d581366	0.052752875
29	0x3dc01a89	0.09380061
30	0xbd9f5f8c	-0.07781896
31	0x3dac7f82	0.08422758
32	0x3e2af7f3	0.16696148
33	0xbe1ecae2	-0.15507081
34	0xbd759616	-0.059957586
35	0x3dd1b094	0.10238758
36	0xbd0b9562	-0.03407801
37	0x3d206584	0.039159313
38	0xbdb7d7a3	-0.08976676
39	0x3e1ae992	0.15128163
40	0x3e9c1cc9	0.3049071
41	0x3e088122	0.1333051
42	0xbb983301	-0.004644752
43	0xbd741665	-0.05959167
44	0x3d9ced74	0.07662478
45	0xbeaa1d5b	-0.3322552
46	0xbaf720fe	-0.0018854437
47	0xbe33d102	-0.17560199
48	0x3dddeeb1	0.108365424
49	0x3bcd4b94	0.006265113
50	0x3d906011	0.07049573
51	0xbdd7a62e	-0.10529743
52	0x3dd40e25	0.1035426
53	0x3dafd335	0.085852064
54	0xbcc74479	-0.024324642
55	0xbb53989a	-0.0032287003
56	0x3e212c86	0.1573964
57	0xbcae9173	-0.02130959
58	0x3dbd3842	0.09239246
59	0xbd016a52	-0.031595536
60	0xbd8d8aab	-0.069112144
61	0x3bb470dd	0.0055066184
62	0xbde43e2e	-0.11144672
63	0x3d0afd13	0.033932757
64	0x3e6bed49	0.23039736
65	0x3c59fe1e	0.013305215
66	0xbc964d8f	-0.01834753
67	0xbd3efa44	-0.04662539
68	0xbda0c7be	-0.07850598
69	0xbe6f2ab5	-0.23356135
70	0x3ddda221	0.10821939
71	0x3d9ecad2	0.07753529
72	0x3d8374fe	0.06418799
73	0xbc1f66e3	-0.00972912
74	0xbd7b8aac	-0.061411545
75	0xbc86f2fc	-0.016473286
76	0x3dbdc5e6	0.09266262
77	0xbe164b2d	-0.14677115
78	0x3d769089	0.060196433
79	0x3dd4eee9	0.10397131
80	0xbe7b2c56	-0.24528632
81	0xbe38de79	-0.18053617
82	0xbd3edd3d	-0.046597708
83	0x3b11a00e	0.0022220644
84	0x3e48d36f	0.19611906
85	0x3c842371	0.016130181
86	0xbe0c277d	-0.13686939
87	0xbd273cd0	-0.04082948
88	0x3daaa053	0.08331361
89	0x3d23b747	0.03996971
90	0xbe244eb5	-0.1604565
91	0xbd5ac0af	-0.053406414
92	0x3c8d699b	0.01726227
93	0x3da5e069	0.080994435
94	0xbe25956c	-0.16170281
95	0xbda8e9c8	-0.08247715
96	0x3d8a9db0	0.06768358
97	0x3db35b0d	0.08757601
98	0x3db7586d	0.08952413
99	0x3ba1353d	0.0049196766
100	0xbd370ecb	-0.044691842
101	0x3d2c8738	0.042121142
102	0xbbb7f220	-0.0056135803
103	0xbd9dfc5c	-0.07714149
104	0x3d5cd074	0.053909734
105	0x3e4a9f47	0.19787322
106	0x3de3ccd9	0.11123056
107	0x3e1dbed5	0.15404828
108	0x3cbe86d4	0.02325765
109	0x3e5c1eb9	0.21496095
110	0x3dd2786a	0.102768734
111	0x3ab3210e	0.0013666467
112	0x3e4b9667	0.19881593
113	0xbd522836	-0.05130788
114	0xbe375529	-0.1790358
115	0xbe6e997e	-0.2330074
116	0xbba93669	-0.005163957
117	0x3b4349ab	0.0029798548
118	0x3da0fd67	0.07860833
119	0xbda51c33	-0.08062019
120	0xbc31318e	-0.010815037
121	0x3d3817c6	0.044944547
122	0x3aa0030c	0.0012207939
123	0x3e6cfc79	0.23143186
124	0x3d838645	0.06422094
125	0x3d6a4a9e	0.057200067
126	0xbe50317b	-0.20331375
127	0x3cc78596	0.02435569
128	0x3e20412f	0.15649866
129	0x3e22c213	0.15894346
130	0x3ceac069	0.028656201
131	0x3d0b01cf	0.03393727
132	0xbe07ba5f	-0.13254689
133	0x3d30445c	0.043033943
134	0x3de59723	0.11210468
135	0xbe27031f	-0.16309784
136	0x3aabb555	0.0013100306
137	0xbd3c1c6b	-0.04592554
138	0xbd4e3c62	-0.050350554
139	0x3e0cd28c	0.13752192
140	0x3e3ae9cd	0.1825325
141	0x3e0f7bea	0.14012113
142	0x3d33cf7c	0.043899044
143	0x3d44a4a7	0.048008587
144	0xbe922ee5	-0.28551403
145	0xbd0affdc	-0.033935413
146	0x3e993f59	0.29931143
147	0xbe4c96b8	-0.1997937
148	0xbd86f942	-0.06590511
149	0x3d2e9185	0.042619247
150	0x3d2a06fa	0.04151056
151	0x3e204a51	0.1565335
152	0xbd9f830e	-0.077886686
153	0xbd49ef11	-0.049300257
154	0x3c9ea28a	0.019364614
155	0x3e11ee5a	0.1425108
156	0x3d305a59	0.043054912
157	0x3d050836	0.032478534
158	0x3a6f3abd	0.0009125879
159	0x3dfcba4c	0.12340221
160	0x3d6b3d2b	0.05743138
161	0x3d4925e2	0.049108393
162	0x3d8ca4f0	0.06867397
163	0x3d0eef4d	0.034896184
164	0xbc34d292	-0.011036532
165	0x3d713d49	0.058896337
166	0xbcda0dc6	-0.026617896
167	0x3dfb0f8c	0.12258825
168	0xbdc71a79	-0.09721846
169	0xbd9cf74d	-0.076643564
170	0xbc9fef68	-0.019523337
171	0xb9d0228a	-0.00039698585
172	0x3e16c12c	0.14722127
173	0x3e3d06b5	0.1845959
174	0x3ce2d50c	0.02768948
175	0xbe0f1beb	-0.13975494
176	0x3d0df109	0.034653697
177	0x3d6383f0	0.055545747
178	0x3d6db345	0.058032293
179	0x3da9a7eb	0.08283981
180	0x3d3dc30d	0.046328593
181	0xbd017f84	-0.03161575
182	0x3de8298b	0.11336049
183	0xbc5bee63	-0.013423535
184	0xbe478f8a	-0.1948835
185	0xbc0a291d	-0.008432654
186	0x3e4722f3	0.19446926
187	0x3e149a27	0.1451193
188	0x3e13b396	0.14423975
189	0xbd242e57	-0.040083256
190	0x3e428d74	0.18999273
191	0x3c290402	0.010315897
192	0xbe007001	-0.12542726
193	0xbdbec193	-0.09314265
194	0xbcd1b285	-0.02559782
195	0xbde7a426	-0.11310606
196	0x3dcde054	0.10052553
197	0xbb781c99	-0.0037858842
198	0x3d129aee	0.035792284
199	0x3e4cf8ae	0.20016739
200	0x3b86ffdb	0.004119856
201	0xbeb30c81	-0.34970477
202	0x3e11e364	0.14246899
203	0x3cefb0b8	0.02925907
204	0x3d0b97ed	0.034080435
205	0x3cb6a0da	0.022293497
206	0x3da9b56a	0.08286555
207	0x3cbbdfc7	0.022933854
208	0xbd23d7ab	-0.0400006
209	0x3e102e16	0.1408008
210	0x3db7d9b0	0.089770675
211	0xbe03d255	-0.12873204
212	0x3e197b61	0.14988472
213	0x3dae882f	0.08522069
214	0xba3b98a5	-0.00071562297
215	0xbd05987a	-0.032616116
216	0x3e89529d	0.2682084
217	0x3d12a6f8	0.035803765
218	0xbcff46e9	-0.031161742
219	0xbe2f4d40	-0.17119312
220	0xbc45b5e4	-0.012067292
221	0xbe1971e1	-0.14984848
222	0xbe02836f	-0.1274545
223	0x3e334304	0.17506033
224	0xbde9c534	-0.11414567
225	0xbe2d623d	-0.16932006
226	0xbdbb767c	-0.091534585
227	0x3e0f9fb4	0.14025766
228	0x3dc334e7	0.09531575
229	0xbdd4f9d6	-0.10399215
230	0xbe87df3b	-0.265375
231	0x3e3b3952	0.18283585
232	0x3e0792a1	0.13239528
233	0x3e11098d	0.141638
234	0x3c1ef757	0.009702525
235	0x3dc1cc64	0.094628125
236	0xbdcdbe4c	-0.10046062
237	0xbd5eaf2f	-0.054366287
238	0xbdbcae48	-0.09212929
239	0xbe627dcd	-0.22118302
240	0xbdbc1b2a	-0.09184869
241	0xbd02a3c7	-0.03189447
242	0xbcc6fdd0	-0.02429095
243	0xbdbd2e77	-0.09237378
244	0x3dded2d9	0.1088006
245	0x3d28f32b	0.041247528
246	0x3e16af93	0.14715414
247	0xbd85d1df	-0.0653417
248	0xbd2e6559	-0.04257712
249	0xbd21ba49	-0.039484296
250	0xbd0e1925	-0.03469195
251	0xbde03197	-0.109469585
252	0xbd6e26ef	-0.0581426
253	0xbe7fac51	-0.24968077
254	0xbe614725	-0.21999796
255	0xbd4918c9	-0.049095903

cnn_net.3.bias f4 [32]
0	0xbb2da2b3	-0.0026494681
1	0x3b37a00e	0.0028018984
2	0xbad5684c	-0.0016281693
3	0x3b56c070	0.003276851
4	0x3a188463	0.0005818067
5	0x39e823f1	0.00044277267
6	0x3ac623d4	0.0015116879
7	0x3c4697cd	0.012121153
8	0xb9398244	-0.00017691503
9	0x3ac0ce59	0.0014709934
10	0x3b5834ab	0.0032990377
11	0xb9b0ba9d	-0.00033708374
12	0x3a942767	0.0011303247
13	0xba2b738b	-0.00065403496
14	0xbb2146cc	-0.0024608849
15	0xba34e52b	-0.0006900604
16	0xbba2ce97	-0.004968475
17	0x3a569444	0.00081855454
18	0xbb0ae7ae	-0.002119522
19	0xba4b6af9	-0.00077597756
20	0x38dfd5d4	0.00010673297
21	0xbb13ea21	-0.0022569972
22	0x3a82ba76	0.0009973783
23	0xbb289cdc	-0.002572826
24	0xb8df58bf	-0.00010649999
25	0xbb853e58	-0.00406627
26	0x39255475	0.00015767089
27	0xb9e00156	-0.00042725605
28	0x3b1853ee	0.0023243385
29	0xbb87cc5f	-0.004144236
30	0xb90a3888	-0.00013181765
31	0xbbcb617a	-0.0062066885

hidden.weight f4 [32, 128]
0	0x3ceaedfc	0.028677933
1	0x3e722409	0.23646559
2	0xbd0f22ca	-0.034945287
3	0xbe2c6fc4	-0.1683951
4	0xbc1aad2c	-0.009440701
5	0xbe299bb2	-0.165633
6	0xbd3a984b	-0.045555394
7	0xbd084ec7	-0.033278253
8	0xbd0768c2	-0.03305889
9	0xbdaab936	-0.083361074
10	0x3da88bf7	0.08229821
11	0xbdd648a1	-0.104630716
12	0x3ca3714a	0.019951481
13	0xbda49ec8	-0.080380976
14	0x3ea4e8af	0.32208773
15	0xbdb0f393	-0.08640208
16	0x3d300138	0.042969912
17	0xbe6a2c59	-0.2286848
18	0xbd0ae862	-0.033913024
19	0xba10429c	-0.00055030896
20	0xbe25a686	-0.16176805
21	0xbe7281b5	-0.23682292
22	0xbda35112	-0.07974447
23	0xbe3e31c3	-0.1857367
24	0x3c34c85f	0.0110341
25	0x3db956e3	0.090497755
26	0xbc3cdf79	-0.011527889
27	0x3d2c7d16	0.04211148
28	0xbd4e29e3	-0.050332915
29	0xbddc03b3	-0.10742893
30	0x3cea6b57	0.028615637
31	0xbc1d0ee9	-0.009586074
32	0x3e02612c	0.1273238
33	0x3c593101	0.013256312
34	0x3e28879a	0.16457978
35	0x3c820f00	0.015876293
36	0x3ebd1b5b	0.36934933
37	0xbda3dbdb	-0.080009185
38	0xbdaf5544	-0.08561185
39	0x3db36ff5	0.087615885
40	0xbbdc723c	-0.006727485
41	0x3dc8185f	0.097702734
42	0xbd468b6c	-0.048472807
43	0xbdeae85c	-0.114701
44	0xbeb5870c	-0.35454595
45	0x3d5303b8	0.05151722
46	0xbdd37ee7	-0.10326939
47	0xbd5a2969	-0.053262148
48	0xbdf8d526	-0.1215003
49	0x3d3b54c5	0.04573514
50	0xbe6b8a33	-0.23001938
51	0x3e3a2b44	0.18180567
52	0x3e8ec9a1	0.27888206
53	0x3da512a5	0.08060197
54	0xbde0ea48	-0.109821856
55	0xbd9b97a4	-0.075972825
56	0x3e29dc59	0.16587962
57	0x3d9af909	0.07567031
58	0x3e6d48c7	0.23172294
59	0x3daa4ba9	0.08315212
60	0xbd1a34a4	-0.03764786
61	0xbc4796dc	-0.012181964
62	0x3d34249b	0.043980222
63	0xbdf616f9	-0.120161004
64	0x3d9a5190	0.07535088
65	0xbde9cd63	-0.114161275
66	0x3e039585	0.12850006
67	0xbe38150a	-0.17976776
68	0x3e1b2f85	0.15154846
69	0xbae926af	-0.0017788018
70	0x3b1a9ebb	0.0023593146
71	0x3e53f644	0.20699412
72	0x3d6f5c82	0.05843783
73	0x3d84a447	0.06476646
74	0x3d8c3e5c	0.068478316
75	0x3e373cf6	0.17894349
76	0x3d3b82d0	0.04577905
77	0x3d636784	0.055518642
78	0x3e32ed35	0.174733
79	0xbc43cbc1	-0.011950434
80	0x3d54fc9a	0.051998712
81	0xbdc19ca7	-0.09453707
82	0xbc61e4c5	-0.013787453
83	0xbc495360	-0.012287945
84	0xbcdaeba1	-0.026723685
85	0x3d162ea4	0.036665574
86	0x3e3f9d00	0.18712234
87	0x3d4480e1	0.04797447
88	0xbd1190ee	-0.035538606
89	0xbdcc34ac	-0.09970984
90	0xbd424a5f	-0.047434207
91	0x3d43b377	0.047778573
92	0xbcf517a7	-0.029918505
93	0x3afe96ee	0.0019423643
94	0xbd50f92f	-0.05101889
95	0xbccb36c4	-0.024806388
96	0x3b28de0b	0.0025767114
97	0xbe690d7b	-0.22759049
98	0xbcc5c7a6	-0.024143051
99	0x3cf3e12b	0.029770454
100	0x3e29a568	0.16567004
101	0xbd2f0981	-0.042733673
102	0xbdb6adda	-0.08919878
103	0x3d0c766a	0.034292616
104	0xbe38c53e	-0.18043992
105	0x3e0f3816	0.13986239
106	0x3dbf24f4	0.0933322
107	0xbdbc0d80	-0.091822624
108	0xbe1c9efe	-0.15295026
109	0xbe7d3f32	-0.24731138
110	0x3e5def06	0.21673211
111	0xbdaa609e	-0.083192095
112	0x3d5ce31b	0.053927522
113	0xbdef4c87	-0.11684518
114	0xbde1a839	-0.11018414
115	0x3ca5db4b	0.020246169
116	0xbdb04957	-0.086077385
117	0xbe47b3e3	-0.19502215
118	0x3da6f8be	0.081529126
119	0xbc79ef2f	-0.01525478
120	0xbe5164f3	-0.20448665
121	0x3e922ac4	0.28548253
122	0x3cdad676	0.026713591
123	0xbdb15828	-0.086593926
124	0xbba00304	-0.004883172
125	0xbc5d9b28	-0.013525762
126	0xbe023552	-0.12715653
127	0xbe87be13	-0.26512203
128	0x3e1a77fc	0.15084833
129	0x3d9b00cd	0.07568512
130	0x3d8658b6	0.06559889
131	0xbe13c1fb	-0.14429466
132	0x3c16764a	0.009183476
133	0x3e963004	0.29333508
134	0xbd604712	-0.054755278
135	0xbe073ac1	-0.13206007
136	0xbd97fa49	-0.07420785
137	0xbd47b82a	-0.048759617
138	0x3e7965d1	0.24355246
139	0xbe05bd3b	-0.13060467
140	0x3e23c1d1	0.15991904
141	0xbd74dcf0	-0.059781015
142	0xbe0968de	-0.1341891
143	0xbe7f1886	-0.24911699
144	0x3de13e51	0.10998214
145	0x3dd8c907	0.10585218
146	0x3c0e85d4	0.008698899
147	0x3df1c315	0.11804787
148	0x3e86adf0	0.2630458
149	0xbe00ef60	-0.12591314
150	0x3e3176d6	0.17330489
151	0xbe8cbace	-0.2748627
152	0x3db7aaee	0.08968149
153	0x3e66ad63	0.2252708
154	0x3db7290e	0.089433774
155	0xbe1b637e	-0.15174672
156	0xbdcb2089	-0.09918315
157	0x3dad3d12	0.08458914
158	0x3d42e8c4	0.047585264
159	0xbe3a754e	-0.1820881
160	0x3a9ab74a	0.0011803892
161	0x3da65bc3	0.08122971
162	0x3c8ea8ce	0.017414477
163	0x3e04f5c1	0.12984373
164	0xbda0bf9a	-0.07849045
165	0xbd15a5ff	-0.03653526
166	0xbaeb7133	-0.0017962813
167	0x3dffa6c8	0.12482983
168	0xbc627d9b	-0.013823892
169	0x3d17c05c	0.037048683
170	0xbcf87a51	-0.030331763
171	0xbc5714ec	-0.013127547
172	0x3da22e30	0.07918966
173	0x3d1782cf	0.036989983
174	0xbde61823	-0.112350725
175	0xbe89ffbe	-0.26952928
176	0x3d2f299f	0.042764302
177	0xbde14247	-0.109989695
178	0x3e2dc065	0.16967924
179	0x3d5b0534	0.05347176
180	0x3e0c9d90	0.1373198
181	0x3b745de8	0.0037287418
182	0xbe20aa26	-0.15689906
183	0x3e10afb6	0.14129528
184	0xbda6287b	-0.0811319
185	0x3cea9f9f	0.028640566
186	0xbe39fa61	-0.18161918
187	0x3e1650b5	0.14679225
188	0xbd6377c6	-0.055534147
189	0xbe893191	-0.2679563
190	0xbe6fd2b4	-0.2342022
191	0xbda77212	-0.08176054
192	0xbd71afdc	-0.059005603
193	0xbdd257b2	-0.10270633
194	0x3d5f1282	0.05446101
195	0x3e5d4505	0.2160836
196	0x3d2f6b24	0.042826787
197	0x3bce0d80	0.0062882304
198	0xbd857f02	-0.065183654
199	0xbdb53f11	-0.088499196
200	0x3d13bfd8	0.03607163
201	0xbe2afccf	-0.16698001
202	0x3e88f5d0	0.2675004
203	0xbd4a972e	-0.049460582
204	0xbe82e192	-0.25562721
205	0x3d58f18d	0.052964736
206	0x3bd452e8	0.0064796098
207	0x3e1df1dc	0.15424293
208	0x3d6dab7c	0.05802487
209	0x3e004cea	0.1252934
210	0xbe2903b9	-0.16505326
211	0xbcf61b02	-0.030042175
212	0xbb1bd3d7	-0.002377739
213	0x3d29a322	0.04141534
214	0xbd26d2eb	-0.04072849
215	0xbd55b911	-0.052178446
216	0xbc66f252	-0.01409586
217	0xbe16c5fa	-0.1472396
218	0x3d54102f	0.051773246
219	0x3da674ec	0.0812777
220	0xbdba70e6	-0.09103565
221	0xbe12765a	-0.1430296
222	0x3d8221b0	0.06354082
223	0xbd389daa	-0.045072235
224	0x3cf779d8	0.030209467
225	0xbd4ba5cd	-0.049718667
226	0x3d800031	0.062500365
227	0xbd05bad3	-0.032648873
228	0xbe2085c4	-0.15676028
229	0xbc9d7e5b	-0.01922529
230	0x3dba085e	0.09083627
231	0x3e1c5090	0.15265107
232	0xbc20ce58	-0.009814821
233	0xbd542601	-0.051794056
234	0xbdaa18b8	-0.08305496
235	0xbe2eef48	-0.17083466
236	0xbdf0aae1	-0.117513426
237	0xbe10f5e3	-0.14156298
238	0xbe127614	-0.14302856
239	0xbbce8595	-0.0063025453
240	0x3d77e011	0.06051642
241	0xbd541da9	-0.0517861
242	0x3e1aec41	0.15129186
243	0x3d508c6c	0.050915167
244	0xbe4b92ff	-0.19880293
245	0xbe82aec7	-0.2552397
246	0x3e80b685	0.2513925
247	0xbd8069dc	-0.06270191
248	0x3e052ebc	0.13006109
249	0xbd8be482	-0.06830694
250	0x3ce658cb	0.028118512
251	0xbe0ebb45	-0.13938625
252	0xbcba21e0	-0.022721231
253	0x3d35f277	0.044420686
254	0x3dd69bc2	0.10478927
255	0x3dc4dd40	0.096125126

hidden.bias f4 [32]
0	0x39ce3512	0.00039330922
1	0x3a51443a	0.0007982884
2	0xbb73a850	-0.003717918
3	0x3b0d459d	0.0021556385
4	0x00000000	0.0
5	0x3a878848	0.0010340298
6	0x00000000	0.0
7	0x3a863de7	0.0010241837
8	0xbbd8df31	-0.0066184034
9	0x3a659911	0.00087584654
10	0x3a1900d9	0.0005836613
11	0x3b0ed477	0.002179412
12	0x3b0bc0e7	0.0021324696
13	0x3abd2996	0.0014431949
14	0x3ac5bd15	0.0015086258
15	0x3a1bcaf7	0.0005943025
16	0xbb36af2d	-0.002787541
17	0x00000000	0.0
18	0x392f5c42	0.00016723669
19	0x3aa2ee10	0.0012430567
20	0xbab87461	-0.001407277
21	0xbb9735bf	-0.0046145613
22	0x3b212c41	0.0024593028
23	0x00000000	0.0
24	0x3bec6184	0.007213773
25	0xbb4bcb3f	-0.0031096486
26	0x3b606a04	0.0034242878
27	0xba2d4b36	-0.00066106336
28	0xb84ad854	-4.8362024e-05
29	0xbbc38001	-0.005966187
30	0x38d8c6b7	0.00010336696
31	0xbb80bb73	-0.0039285957

mu_layer.weight f4 [2, 32]
0	0x3e222f72	0.15838411
1	0xbe2a2669	-0.16616215
2	0x3dfc80b3	0.12329235
3	0xbe1d6ab9	-0.15372743
4	0xbe82eb6c	-0.25570238
5	0xbe35e18e	-0.17761824
6	0x3cb08fa0	0.02155286
7	0x3ccdea47	0.025136126
8	0x3de22bf9	0.11043543
9	0x3e68b888	0.22726643
10	0x3e860bd0	0.26180887
11	0xbe8dac87	-0.2767069
12	0x3e41eb45	0.18937404
13	0x3e4ac8b0	0.19803119
14	0x3e068b1d	0.13139005
15	0xbf388538	-0.72078276
16	0xbeabd146	-0.335581
17	0x3e85c450	0.26126337
18	0xbe057d0d	-0.13035984
19	0x3dfdad4a	0.12386568
20	0x3edbc494	0.42923415
21	0x3d18df49	0.037322316
22	0x3e9494f9	0.29019907
23	0xbe4f455a	-0.202413
24	0x3dba44f8	0.09095186
25	0xbc37d084	-0.011219148
26	0xbe339235	-0.17536242
27	0x3eb05653	0.3444086
28	0x3dc56d8e	0.096400365
29	0x3e2409b8	0.16019332
30	0xbf0ce24d	-0.5503281
31	0xbe10db11	-0.14146067
32	0xbe02b81d	-0.12765546
33	0x3e0bd202	0.1365433
34	0x3da1c4c2	0.07898857
35	0x3e61639e	0.22010657
36	0xbe54821e	-0.20752761
37	0xbec3fac2	-0.3827725
38	0xbb407ca3	-0.0029371164
39	0x3e9628e6	0.29328078
40	0xbe06f508	-0.1317941
41	0x3d6f78c5	0.058464784
42	0xbea5e09b	-0.32397923
43	0xbeb6309b	-0.35583958
44	0xbe75eb9c	-0.24015659
45	0x3e33acac	0.17546338
46	0xbe10d057	-0.14141975
47	0xbcc7d531	-0.02439365
48	0x3ce1e5b8	0.027575359
49	0x3ee4e0f7	0.44702885
50	0x3d9cfb87	0.076651625
51	0x3e3bc117	0.18335377
52	0xbe18bc22	-0.14915517
53	0x3dc0cb32	0.094137564
54	0xbd661258	-0.056169838
55	0xbf0e22e8	-0.5552201
56	0x3e97704d	0.29577866
57	0x3e45fdb8	0.19335067
58	0x3dd18ea1	0.102322824
59	0xbda22e01	-0.07918931
60	0x3f19fe8d	0.6015404
61	0xbda63214	-0.081150204
62	0x3ee4c100	0.44678497
63	0x3d1b3f96	0.037902437

mu_layer.bias f4 [2]
0	0xba315813	-0.0006765138
1	0xbab74c48	-0.0013984526

log_std_layer.weight f4 [2, 32]
0	0xbd8932ae	-0.066991195
1	0x3d46f2d5	0.048571426
2	0xbecb7cb2	-0.39743572
3	0xbe1a6c68	-0.15080416
4	0xbe0caf53	-0.13738756
5	0xbdf3ec79	-0.11910338
6	0xbe0a83ff	-0.13526915
7	0xbdfa7d93	-0.12230983
8	0x3d86299a	0.065509036
9	0xbd561683	-0.052267563
10	0x3d49e9b2	0.049295135
11	0xbd800cbc	-0.06252429
12	0x3e85157e	0.2599296
13	0x3f339185	0.7014392
14	0x3e4c3ae3	0.19944339
15	0x3e7da74f	0.24770854
16	0x3dfd2db9	0.123622365
17	0x3c93f8f8	0.018063053
18	0x3e14cfb6	0.1453236
19	0x3ebab253	0.36464176
20	0xbd2d3aa6	-0.04229226
21	0x3d16aefe	0.03678798
22	0x3e861bc1	0.2619305
23	0xbe9a5e18	-0.30149913
24	0x3e850758	0.25982165
25	0xbe6fe377	-0.23426615
26	0x3eb223ed	0.34793034
27	0xbe0f052e	-0.1396682
28	0xbedd1ad5	-0.43184534
29	0x3e986be6	0.2976982
30	0x3ec69412	0.38784844
31	0xbea36d4e	-0.3191933
32	0x3ea2e1af	0.31812808
33	0xbe25236f	-0.16126798
34	0xbf0404bc	-0.51569724
35	0x3e4d6577	0.20058237
36	0xbe80a08b	-0.25122485
37	0xbd42d1bc	-0.0475633
38	0x3e8d56c8	0.2760527
39	0x3f218d8d	0.63106614
40	0xbe9d8dbe	-0.30772203
41	0x3ddb4b88	0.10707766
42	0xbd75b118	-0.059983343
43	0x3ea128f8	0.3147657
44	0xbe2018df	-0.15634488
45	0xbda42781	-0.08015347
46	0x3d870782	0.06593229
47	0x3d858f3b	0.0652146
48	0xbec061a8	-0.37574506
49	0x3e3e06a9	0.18557228
50	0xbe1de0da	-0.15417805
51	0x3cfa706a	0.030571181
52	0xbe74803a	-0.2387704
53	0xbd32e7d1	-0.04367811
54	0x3d3558d9	0.044274185
55	0x3f07da71	0.5306769
56	0x3cd5e015	0.026107827
57	0xbe77d037	-0.24200521
58	0x3e969fa8	0.29418683
59	0x3dded0c0	0.1087966
60	0x3d953085	0.07284645
61	0xbe1dcfef	-0.15411352
62	0x3e82891b	0.25495228
63	0xbe1e5ee4	-0.15465885

log_std_layer.bias f4 [2]
0	0x3b1751ab	0.002308945
1	0x3b30500c	0.002690318
