07.Olympic/train_history/critic.pth (torch, 46963 bytes, 11 tensors)

encoder.encoder.0.weight f4 [8, 4, 3, 3]
0	0xbe89cd0b	-0.26914248
1	0xbeb7d1eb	-0.35902342
2	0xbe9d7ae9	-0.30757836
3	0x3c37e5cf	0.011224224
4	0xbea683c0	-0.32522392
5	0xbd1b8107	-0.037964847
6	0xbdf5d603	-0.1200371
7	0x3e63f44a	0.22261158
8	0xbe8cb4dd	-0.27481738
9	0x3d131d77	0.03591677
10	0x3e37c619	0.17946662
11	0xbeb2e784	-0.34942257
12	0x3d4c1d39	0.049832556
13	0x3e54af77	0.2077006
14	0x3cf75a65	0.03019447
15	0xbd5ec758	-0.054389328
16	0x3e6401cf	0.22266315
17	0xbdb030cb	-0.086030565
18	0xbe620cdb	-0.22075216
19	0x3e2dc108	0.16968167
20	0xbdf7e8a1	-0.12104917
21	0xbdabb984	-0.08384994
22	0xbe2ed98d	-0.17075177
23	0xbe926316	-0.28591222
24	0xbed82f77	-0.42223713
25	0xbb4d7179	-0.0031348153
26	0x3dd2b64c	0.102886766
27	0x3f141231	0.5784026
28	0x3e9566e1	0.29180053
29	0x3ea6f1ce	0.32606357
30	0xbf034844	-0.51282144
31	0xbcf84dec	-0.030310594
32	0x3e76cb86	0.24101076
33	0x3dcd9b27	0.100393586
34	0xbe2e9b91	-0.17051531
35	0xbe04d030	-0.12970042
36	0x3e9a7546	0.30167598
37	0xbdef9290	-0.116978765
38	0x3e5aefc2	0.21380523
39	0xbebbcd32	-0.3667999
40	0x3cf52e18	0.029929206
41	0x3e4523c3	0.19251923
42	0xbe1df2e0	-0.1542468
43	0x3cd2565e	0.025675949
44	0x3e222317	0.15833698
45	0x3d1b5b40	0.03792882
46	0xbde588c3	-0.11207726
47	0x3e205e21	0.15660907
48	0x3e5b963f	0.21444033
49	0x3d5c2b4a	0.05375222
50	0xbe9c6972	-0.30549198
51	0x3df72748	0.12068039
52	0xba918b64	-0.0011104164
53	0xbe406478	-0.18788326
54	0x3cdd4c32	0.027013872
55	0x3f032604	0.5122988
56	0xbe80f844	-0.25189412
57	0xbf2a515f	-0.6653041
58	0xbca3b91f	-0.019985734
59	0xbe8eb78e	-0.27874416
60	0x3eeda40b	0.46414217
61	0x3e5c61bc	0.21521658
62	0x3e48cc76	0.19609246
63	0xbe2ad28d	-0.16681881
64	0x3e89c9fb	0.2691191
65	0x3e049663	0.12947993
66	0xbe88c1f5	-0.26710477
67	0x3db873c4	0.090064555
68	0x3d6f35f3	0.05840106
69	0x3ddc3459	0.10752172
70	0xbea0be56	-0.31395215
71	0x3e110f1c	0.1416592
72	0x3c9def24	0.01927907
73	0xbe4204fe	-0.18947217
74	0xbd398617	-0.045293894
75	0x3e7a7b67	0.24461137
76	0xbeeb29c8	-0.45930314
77	0xbda930dd	-0.08261273
78	0x3e45d973	0.19321232
79	0x3d6c7ee8	0.057738215
80	0xbd0379a3	-0.032098424
81	0xbea16ba4	-0.31527436
82	0xbe4f375f	-0.20235966
83	0x3d929eba	0.07159181
84	0x3e6540cc	0.22388
85	0x3b954680	0.0045555234
86	0x3ec04dbc	0.37559307
87	0x3e96c5a0	0.2944765
88	0x3d8a82ec	0.067632526
89	0xbdc32546	-0.09528594
90	0x3ee0f692	0.43938118
91	0x3e958cb8	0.29208922
92	0xbea50d19	-0.32236555
93	0xbcb9e52e	-0.02269229
94	0x3e0dfdac	0.138663
95	0xbcd1ff81	-0.02563453
96	0xbdc9d0a7	-0.098542504
97	0xbed06f2a	-0.4070981
98	0xbbe570e2	-0.007001982
99	0xbee506ef	-0.44731852
100	0xbe2e95b8	-0.170493
101	0x3d5c8323	0.053836
102	0xbd9eddf2	-0.077571765
103	0xbefdb7a0	-0.49554157
104	0x3efbf08c	0.4920696
105	0x3d452a23	0.048135888
106	0x3e571be2	0.2100673
107	0xbd3aba6b	-0.04558794
108	0x3d0cfab9	0.034418795
109	0x3daa6003	0.08319094
110	0x3e6a714c	0.22894782
111	0x3c747e7b	0.014922733
112	0xbe793dd0	-0.24339986
113	0xbc85cf67	-0.016334249
114	0x3e3b2c84	0.182787
115	0x3df16ad1	0.11787952
116	0xbdd660d2	-0.10467686
117	0x3d1536b0	0.036429107
118	0x3d7cc9e5	0.06171598
119	0xbb1fa2bd	-0.0024358474
120	0xbf23f685	-0.64048034
121	0xbe6faf15	-0.23406632
122	0x3e157671	0.14595963
123	0xbe9719ca	-0.29511863
124	0x3e8ec9a9	0.2788823
125	0x3dc365e2	0.09540917
126	0xbec401d5	-0.38282648
127	0x3db09675	0.086224474
128	0xbe8a541f	-0.27017304
129	0x3e201a38	0.15635002
130	0x3eba717e	0.36414713
131	0x3dec06ca	0.115247324
132	0x3ecbd67c	0.39812076
133	0xbb64d996	-0.003491973
134	0x3eb0f58e	0.34562343
135	0xbe80bf75	-0.2514607
136	0xbe6d3487	-0.23164569
137	0x3e444ff6	0.19171128
138	0xbec0082b	-0.37506232
139	0x3e12e337	0.14344488
140	0x3bfc8d77	0.0077072936
141	0xbead39de	-0.33833212
142	0xbd268b2f	-0.04066008
143	0xbe86c57d	-0.26322547
144	0x3ddf3231	0.10898245
145	0x3e386764	0.1800819
146	0xbdb82752	-0.08991875
147	0x3ea46041	0.32104686
148	0xbe3310f1	-0.17486931
149	0xbe0f81a1	-0.14014293
150	0x3c9fd423	0.019510334
151	0x3f05d68b	0.5228049
152	0xbd2fea19	-0.042947862
153	0xbe47bc94	-0.1950553
154	0x3ea6614d	0.3249611
155	0x3e3f52c9	0.18683924
156	0x3dfd95b9	0.12382073
157	0x3e795512	0.24348858
158	0xbebe8ee5	-0.37218395
159	0xbe086ee9	-0.13323559
160	0xbcc311a9	-0.023812132
161	0xbe57412e	-0.21020958
162	0x3e451579	0.19246472
163	0xbead12cf	-0.33803412
164	0xbe2a767e	-0.16646764
165	0xbd878326	-0.066168115
166	0x3dda746c	0.10666737
167	0x3e243d6d	0.16039057
168	0x3f037045	0.51343185
169	0xbe981e33	-0.2971054
170	0xbeb5c6cf	-0.3550324
171	0x3ea82d77	0.32847187
172	0x3e671abe	0.22568795
173	0x3e20c108	0.15698636
174	0x3d3ecc8f	0.0465818
175	0x3c997e3f	0.018736957
176	0x3c8f22b1	0.017472597
177	0xbec219d8	-0.37910342
178	0x3e388b27	0.18021832
179	0x3daf59d4	0.08562055
180	0x3e8f5c1b	0.27999958
181	0xbef25502	-0.4733048
182	0xbe8347d0	-0.25640726
183	0xbcf29ab5	-0.029614786
184	0xbdbdd3c2	-0.09268905
185	0xbdb68582	-0.08912183
186	0x3d74dcb8	0.059780806
187	0xbeb5d4ec	-0.3551401
188	0x3e32de20	0.17467546
189	0x3eead520	0.45865726
190	0xbd9b8003	-0.07592776
191	0xbdd902e6	-0.10596256
192	0x3e80d6fe	0.25164026
193	0xbdd04996	-0.101702854
194	0x3da3e016	0.080017254
195	0xbd1e3431	-0.038623992
196	0x3e1b6a4c	0.15177268
197	0x3e7878bf	0.24264811
198	0xbd45e9b1	-0.04831857
199	0xbd380463	-0.04492606
200	0x3eb6d25c	0.35707366
201	0x3e14cb1e	0.14530608
202	0x3ed4cd82	0.4156304
203	0x3e182282	0.14856914
204	0x3f0712c5	0.52763015
205	0xbe7854ad	-0.24251051
206	0x3e4334dc	0.19063133
207	0x3eab2dd0	0.3343339
208	0x3e34065e	0.17580554
209	0xbd1f68d7	-0.038918342
210	0x3e03846a	0.1284348
211	0xbe87fb90	-0.26559114
212	0x3eb0b825	0.3451549
213	0x3d01c137	0.031678405
214	0xbe3b7a86	-0.18308458
215	0xbd7e155e	-0.062032096
216	0xbe1dc4a3	-0.15407042
217	0x3e108f75	0.14117225
218	0xbdd04930	-0.101702094
219	0x3e0c81a7	0.13721333
220	0xbdd3cbb2	-0.10341586
221	0xbdb3e500	-0.08783913
222	0x3e62c426	0.22145137
223	0xbe75a010	-0.2398684
224	0xbdaaf307	-0.08347135
225	0x3ee5cfe0	0.4488516
226	0x3ea0e4b7	0.31424496
227	0x3e7859ca	0.24253002
228	0x3e0cb8dc	0.13742393
229	0xbe440eff	-0.19146346
230	0x3dca941d	0.098915316
231	0x3e60e36e	0.21961758
232	0xbd5b9c64	-0.053615943
233	0xbdf26183	-0.11835005
234	0x3ef02b3c	0.46907985
235	0x3eac63f5	0.3367001
236	0x3d347df1	0.04406542
237	0x3e7e0a5c	0.2480864
238	0xbdad9cd9	-0.08477182
239	0x3de0430d	0.10950289
240	0xbdfb87bb	-0.12281748
241	0x3d05516c	0.032548353
242	0x3e5dc081	0.21655466
243	0xbe2e1045	-0.16998394
244	0x3f11179c	0.5667665
245	0x3eadf11d	0.33973017
246	0x3d69742b	0.056995552
247	0x3e6f4019	0.23364295
248	0xbeb3f85b	-0.35150418
249	0xbe81b63c	-0.25334346
250	0xbd4211b9	-0.047380183
251	0xbeaaddfe	-0.33372492
252	0xbdc1ee6b	-0.09469303
253	0x3e68ed92	0.22746876
254	0x3ed58616	0.41703862
255	0x3f0c3eae	0.5478314

encoder.encoder.0.bias f4 [8]
0	0xbb75f912	-0.003753249
1	0xbbc64f7c	-0.0060519557
2	0x3a52cd2d	0.0008041438
3	0x3ba013af	0.004885159
4	0xba8d7be7	-0.0010794372
5	0xbc99fb6f	-0.01879665
6	0xba047060	-0.00050521456
7	0x3b021d44	0.001985387

encoder.encoder.3.weight f4 [8, 8, 3, 3]
0	0x3df57717	0.11985605
1	0x3dfe768a	0.12424953
2	0xbea90df6	-0.33018464
3	0x3e614d7e	0.22002217
4	0x3e34589c	0.17611927
5	0xbd01ab8a	-0.031657733
6	0xbd117347	-0.035510328
7	0xbde6bdbb	-0.11266657
8	0xbd6cf4e0	-0.05785072
9	0x3dc8e2a5	0.09808854
10	0xbe0242e2	-0.12720826
11	0xbdc76602	-0.09736253
12	0x3de97ca6	0.11400728
13	0x3e1b4e6f	0.15166639
14	0xbe0ba8d9	-0.13638629
15	0xbd119973	-0.03554673
16	0x3d798be2	0.06092442
17	0x3e39dcba	0.18150607
18	0xbe030097	-0.12793194
19	0xbd4421e7	-0.047883894
20	0x3a9846a7	0.0011617736
21	0x3e85b982	0.26118094
22	0x3df56385	0.119818725
23	0xbe29c070	-0.16577315
24	0xbcfbfaec	-0.030759297
25	0x3cd4f644	0.025996335
26	0x38b63782	8.6887754e-05
27	0xbe57e398	-0.21082914
28	0xbe4bdf0a	-0.19909301
29	0xbd80b8bb	-0.062852345
30	0x3e477feb	0.1948239
31	0xbe8c8de3	-0.27452
32	0xbdbd6493	-0.09247699
33	0x3e47d91f	0.19516419
34	0xbd8e392c	-0.069444984
35	0xbe60da36	-0.21958241
36	0x3cf71b36	0.030164342
37	0xbed3a03d	-0.4133319
38	0xbd877733	-0.06614532
39	0x3e452564	0.19252545
40	0xbcf6fb6a	-0.03014918
41	0xbe4c73c9	-0.19966044
42	0xbd6194f8	-0.05507371
43	0xbcc8c309	-0.024507063
44	0xbe8b3762	-0.2719069
45	0x3d931af0	0.07182872
46	0x3e32bec9	0.17455591
47	0xbe1c1dec	-0.1524579
48	0x3ec4a044	0.38403523
49	0x3ea36f02	0.3192063
50	0x3dc8aefb	0.09799
51	0x3e512527	0.20424329
52	0xbc57bfb7	-0.013168267
53	0xbe325465	-0.17415006
54	0xbe1278f9	-0.1430396
55	0xbe347933	-0.17624359
56	0x3bfe5109	0.007761125
57	0x3a9d772f	0.0012013669
58	0xbe082780	-0.13296318
59	0xbdd92a85	-0.10603813
60	0xbedc8a8b	-0.4307445
61	0x3dcdf02a	0.10055573
62	0x3d103d5d	0.03521477
63	0x3d9d398c	0.07676992
64	0xbe860546	-0.26175898
65	0xba951d62	-0.0011376555
66	0xbcfeeaab	-0.031117758
67	0x3d8866ff	0.0666027
68	0xbd0be563	-0.034154307
69	0xbe3e95de	-0.18611857
70	0xbe744bc7	-0.23857032
71	0xbd3f3c8e	-0.04668861
72	0x3e22024e	0.15821192
73	0xbf03af62	-0.5143949
74	0x3eb43f96	0.35204762
75	0xbcedb7e2	-0.029018346
76	0xbdb3b0d5	-0.087739624
77	0x3e02dc09	0.12779249
78	0x3e4ef35a	0.20210019
79	0xbc0b87c3	-0.008516255
80	0x3c717a86	0.0147386845
81	0xbea645cc	-0.32475126
82	0xbc8bf0cc	-0.017082594
83	0xbe04b263	-0.12958674
84	0x3d32cce5	0.043652434
85	0x3d91b77d	0.07115076
86	0x3b6b775a	0.0035929293
87	0xbe841ad5	-0.2580172
88	0x3e850865	0.25982967
89	0x3dab7cd2	0.08373417
90	0x3e26e5a7	0.16298543
91	0xbe54771e	-0.20748565
92	0x3e1917e0	0.14950514
93	0x3d9aee13	0.0756494
94	0x3d659982	0.0560546
95	0xbd34760f	-0.044057902
96	0x3dc4945c	0.0959861
97	0xbe244460	-0.16041708
98	0x3db98897	0.090592556
99	0x3e502ca3	0.20329528
100	0x3e709a1b	0.23496287
101	0xbdf6f0a0	-0.12057614
102	0xbd860a88	-0.065449774
103	0x3e258467	0.16163789
104	0xbb5c2f66	-0.0033597588
105	0xbd3b9114	-0.045792654
106	0x3e831035	0.25598302
107	0xbd89aa8f	-0.067219846
108	0xbe56c583	-0.20973782
109	0x3cd15e12	0.025557552
110	0xbe5c3abd	-0.21506782
111	0x3e626c4e	0.22111627
112	0xbeaba542	-0.3352452
113	0xbea23b75	-0.31685987
114	0xbd26d7c2	-0.040733106
115	0xbda793c6	-0.081824824
116	0xbdaceb03	-0.084432624
117	0x3ebb690f	0.3660359
118	0x3c738808	0.014863975
119	0x3d136f2e	0.0359947
120	0x3d18b8ac	0.03728549
121	0x3e2b8af1	0.1675222
122	0x3ec4d7b8	0.3844583
123	0xbd32bcb9	-0.04363701
124	0xbcc13e47	-0.023589266
125	0xbe1f66bb	-0.15566532
126	0xbd9f7459	-0.077858634
127	0x3cea835b	0.028627088
128	0xbe2ad360	-0.16682196
129	0xbdb675b1	-0.089091666
130	0x3e2cf0da	0.16888753
131	0x3d00604e	0.031341843
132	0xbddd05b5	-0.10792104
133	0x3e201e90	0.15636659
134	0xbd717bce	-0.05895596
135	0x3df62cd1	0.12020267
136	0xbc7d1682	-0.015447261
137	0x3d7306a6	0.059332512
138	0x3d4dfb57	0.050288524
139	0xbe3ad32d	-0.1824462
140	0xbe4807cc	-0.19534224
141	0x3da156bb	0.07877871
142	0xbded4dc1	-0.11587096
143	0xbdb218c2	-0.086961284
144	0xbe4c1ab3	-0.1993206
145	0xbdf94b33	-0.12172546
146	0x3e2e37b5	0.17013438
147	0x3e507dfc	0.20360559
148	0xbdd11c52	-0.1021048
149	0xbec7b82b	-0.39007697
150	0xbe0eef35	-0.13958438
151	0x3d6c3f6b	0.057677668
152	0x3e8aa64a	0.27079993
153	0xbd4f2440	-0.05057168
154	0xbe8a8012	-0.27050835
155	0xbdcd3453	-0.10019746
156	0xbe0485f9	-0.12941732
157	0xbdaffe77	-0.08593457
158	0xbe302358	-0.17200983
159	0xbe3007d2	-0.17190483
160	0x3e4ecb66	0.20194778
161	0xbe250b7c	-0.16117662
162	0xbdb22c4f	-0.086998574
163	0x3e16c5fd	0.14723964
164	0x3e08b46f	0.1335008
165	0x3dc2a153	0.095034264
166	0x3e166946	0.14688596
167	0xbe86eb55	-0.2635142
168	0xbe03a41c	-0.12855572
169	0x3ea65f15	0.32494417
170	0xbd3cb4ed	-0.04607098
171	0x3d940b21	0.07228685
172	0xbeb90f97	-0.36144707
173	0x3dc7f4f8	0.09763521
174	0x3ed706cb	0.4199737
175	0x3e65fe36	0.22460255
176	0x3d8c707d	0.06857393
177	0x3cda84b8	0.026674613
178	0x3df53b53	0.11974206
179	0xbe089859	-0.13339366
180	0x3db915c3	0.09037354
181	0xbe3f8c5c	-0.18705887
182	0xbe939569	-0.28824928
183	0x3da34e3f	0.07973909
184	0x3e17416a	0.14771047
185	0xbda2469b	-0.07923623
186	0xbe4eddc5	-0.20201786
187	0xbda27830	-0.0793308
188	0x3e46136b	0.19343345
189	0x3d654cb0	0.055981338
190	0xbe4497fd	-0.19198604
191	0xbdb43e2f	-0.08800923
192	0x3c2cc963	0.010546061
193	0x3dd93491	0.10605729
194	0xbe4106c8	-0.18850243
195	0xbd1fce46	-0.039015077
196	0xbdab4490	-0.08362687
197	0x3dd0db73	0.101981066
198	0x3e0d559d	0.1380219
199	0x3d365ef6	0.044524156
200	0x3e6a3545	0.22871883
201	0x3e6b095d	0.2295279
202	0x3ea6d310	0.32582903
203	0x3eac1392	0.3360868
204	0xbc37eb65	-0.011225556
205	0x3c9175bd	0.017756337
206	0xbe465702	-0.19369128
207	0x3e1a66b6	0.15078244
208	0x3dae538e	0.085120305
209	0x3da16503	0.078805946
210	0xbc90a7a0	-0.017658055
211	0x3df9b3ac	0.12192473
212	0xbc9f559c	-0.019450001
213	0x3d270d00	0.040783882
214	0x3dfab5e1	0.12241722
215	0x3b356423	0.0027678094
216	0xbd7a5c5e	-0.061123244
217	0x3daa1db5	0.083064474
218	0xbe0699db	-0.13144629
219	0x3d2de184	0.042451397
220	0x3dc4378e	0.09580909
221	0x3e1d38be	0.15353677
222	0x3e9b9d6c	0.3039354
223	0xbd6c6d31	-0.05772132
224	0xbe59ee34	-0.21282274
225	0x3e8e4b03	0.27791604
226	0xbda9e461	-0.08295513
227	0xbe0e70f2	-0.13910273
228	0xbd27294d	-0.040810872
229	0x3d65b43c	0.056080088
230	0x3d9843b6	0.0743479
231	0x3dea7b20	0.114492655
232	0x3dce5f0e	0.10076724
233	0x3d0e4705	0.0347357
234	0xbe1e99a1	-0.15488292
235	0xbe005a5a	-0.12534466
236	0xbe3f2594	-0.18666679
237	0x3e183e18	0.14867437
238	0x3df62c10	0.12020123
239	0x3dcb9ae3	0.09941652
240	0x3e320bd1	0.1738732
241	0xbc8a47a8	-0.016879871
242	0xbe98b5c3	-0.29826173
243	0x3daa68a0	0.08320737
244	0xbe2ad8b4	-0.16684228
245	0x3e06af21	0.13152744
246	0x3e73ea45	0.23819835
247	0x3dd0449c	0.10169336
248	0xbea3650c	-0.3191303
249	0x3e9cb8be	0.30609697
250	0xbde39570	-0.11112487
251	0xbd33aaec	-0.043864176
252	0x3e98599c	0.29755867
253	0x3e66aa72	0.22525957
254	0xbe4a46ae	-0.19753525
255	0xbe48ea68	-0.19620669

encoder.encoder.3.bias f4 [8]
0	0x3bdfa9e2	0.0068256715
1	0x38fac008	0.000119566976
2	0x3c865e97	0.016402526
3	0xbc335584	-0.0109456815
4	0xbac32500	-0.0014888346
5	0x3bd789dc	0.0065777134
6	0xba0594cc	-0.000509572
7	0xbc92b675	-0.017909268

cnn_net.0.weight f4 [16, 8, 3, 3]
0	0x3e2c0607	0.16799174
1	0xbeb38aa5	-0.35066715
2	0x3c98eebd	0.018668527
3	0x3e414cbc	0.18876928
4	0xbda7d0f4	-0.081941515
5	0x3dfbe1f7	0.12298959
6	0x3dae1535	0.08500139
7	0xbd990a6f	-0.07472693
8	0xbda7d670	-0.081951976
9	0xba5c23a5	-0.00083976454
10	0xbdfe6d78	-0.12423223
11	0x3e1458e9	0.14487042
12	0x3d9e7487	0.077370696
13	0x3dc15577	0.09440129
14	0x3eca6dd2	0.3953691
15	0xbe0205e7	-0.12697564
16	0x3e5a0fdf	0.21295117
17	0xbcf148a8	-0.02945359
18	0xbd62b7e3	-0.05535115
19	0xbd0ee7a7	-0.03488889
20	0xbe3baf8b	-0.18328683
21	0x3db33f85	0.0875235
22	0x3dea6b73	0.114462756
23	0xbea9913a	-0.33118612
24	0xbcc4810d	-0.023987317
25	0xbd87191c	-0.06596586
26	0xbbb077f1	-0.005385392
27	0xbe99efd6	-0.30065793
28	0xbe93874d	-0.28814164
29	0xbd3293c2	-0.043597944
30	0x3dd1bee6	0.10241489
31	0x3d120dc2	0.03565765
32	0xbd867bb6	-0.06566565
33	0x3e807b7f	0.2509422
34	0xbe8a264d	-0.26982346
35	0x3c22ead9	0.009943687
36	0x3e43d1cb	0.19122998
37	0x3c3eb45b	0.01163968
38	0x3dd2db0e	0.102956876
39	0x3dc1bc7e	0.0945978
40	0xbdf35f4f	-0.11883413
41	0xbe443301	-0.19160081
42	0x3d40ac57	0.047039356
43	0xbe27ec00	-0.1639862
44	0x3eb8ee65	0.3611938
45	0x3e995b7c	0.2995261
46	0xbdfc7a34	-0.12327996
47	0xbec7f077	-0.39050648
48	0xbe059c35	-0.1304787
49	0x3dcb529c	0.09927866
50	0x3ea21702	0.3165818
51	0xbd538139	-0.05163691
52	0xbe0858ac	-0.13315076
53	0xbdadcf47	-0.08486801
54	0xbe3fb64e	-0.18721887
55	0xbe1215eb	-0.14266174
56	0x3dafc3ce	0.08582269
57	0xbe13c454	-0.14430362
58	0xbe13bce2	-0.14427522
59	0xbd2e380f	-0.04253393
60	0xbd3bc387	-0.045840766
61	0xbd59df67	-0.05319157
62	0x3e4c59cb	0.19956128
63	0x3c415fe8	0.011802651
64	0x3d4cb0eb	0.04997341
65	0xbc5f4052	-0.013626175
66	0xbeb3561d	-0.35026637
67	0x3bdc128a	0.006716077
68	0xbcc3b462	-0.023889724
69	0x3da9a167	0.08282738
70	0x3e41dfb2	0.18932989
71	0x3cf7cb0e	0.030248191
72	0x3e88739a	0.26650697
73	0xbea4eae4	-0.32210457
74	0xbe178a15	-0.14798768
75	0x3e1d78cb	0.1537811
76	0x3d5623ce	0.05228024
77	0xbe0687ac	-0.13137692
78	0x3e470656	0.1943601
79	0xbda317c7	-0.079635195
80	0x3d821890	0.06352341
81	0xbd832bea	-0.0640486
82	0x3dcaaa94	0.098958164
83	0xbe216433	-0.15760879
84	0x3daccad9	0.084371276
85	0xbd1ebbfe	-0.038753502
86	0xbe0e18c3	-0.13876633
87	0xbe2f0e74	-0.17095357
88	0xbd255322	-0.040362485
89	0xbd8883d2	-0.06665768
90	0x3cdba798	0.026813313
91	0xbd64da84	-0.055872455
92	0x3e10b423	0.14131217
93	0x3c98ab66	0.018636417
94	0xbe78d49c	-0.24299854
95	0x3da4f465	0.08054427
96	0x3e86ecba	0.26352483
97	0xbe86c353	-0.26320896
98	0x3e2dc7c8	0.16970742
99	0xb7447186	-1.1708942e-05
100	0x3e2a15cf	0.16609882
101	0x3e0d50fa	0.13800421
102	0x3eb201d0	0.34767008
103	0xbde4f744	-0.11179975
104	0xbe83c718	-0.25737834
105	0x3b943536	0.004522945
106	0xbdd4ec68	-0.103966534
107	0x3e4c6a2e	0.1996238
108	0x3e53b0d0	0.20672917
109	0xbda36b20	-0.07979417
110	0xbd2fbfc5	-0.042907495
111	0x3cc13ef8	0.023589596
112	0x3dee69d6	0.1164128
113	0xbe8d20c3	-0.27564058
114	0x3e7d5c8b	0.24742334
115	0xbe0dfedf	-0.13866757
116	0x3d1bff07	0.03808501
117	0x3c74778d	0.014921081
118	0x3a478204	0.00076106214
119	0x3e049f48	0.12951386
120	0xbd9ad646	-0.07560401
121	0xbdebeab9	-0.11519379
122	0xbe34703b	-0.17620938
123	0x3df040d8	0.11731118
124	0xbc9124ac	-0.017717682
125	0xbe083c8a	-0.13304344
126	0xbe1e5625	-0.15462549
127	0x3e95ffb1	0.2929664
128	0x3df27d46	0.118403
129	0xbdcc082b	-0.099624954
130	0xbd61114e	-0.054948144
131	0xbe3ff8f6	-0.18747315
132	0x3df62bfb	0.12020107
133	0xbe1eeab0	-0.15519214
134	0xbdfe8620	-0.12427926
135	0x3e9acfbc	0.30236614
136	0x3d87b29c	0.06625864
137	0xbd8c755f	-0.06858324
138	0x3e04b6f8	0.12960422
139	0xbe8598f4	-0.26093256
140	0x3e56058b	0.20900552
141	0xbdb64e86	-0.08901696
142	0xbe4e04c4	-0.20119005
143	0x3e49b501	0.19697954
144	0x3d0e5d18	0.03475675
145	0x3ddc450f	0.107553594
146	0xbd80b8fa	-0.062852815
147	0x3b5b88b2	0.0033498225
148	0xbdf2b2fa	-0.11850543
149	0x3e24ed52	0.16106156
150	0xbd362cea	-0.044476427
151	0xbd7ec073	-0.062195253
152	0x3db22dc8	0.08700138
153	0xbe580f7a	-0.21099654
154	0x3b2961d2	0.002584566
155	0x3e0e0c5e	0.13871905
156	0x3d91e5d3	0.071239136
157	0xbcee7918	-0.029110476
158	0xbc3c1967	-0.011480666
159	0xbe0651f7	-0.13117205
160	0x3d50daad	0.050989795
161	0x3d19f0a3	0.037583005
162	0x3c5c46de	0.01344463
163	0xbd5ca7c8	-0.053870946
164	0x3dbfc5a7	0.09363871
165	0x3e1acc24	0.15116936
166	0xbead7438	-0.3387773
167	0xbe9c8777	-0.305721
168	0xbd980b34	-0.07424012
169	0xbd4c95ff	-0.049947735
170	0xbe47e453	-0.19520693
171	0x3e02899c	0.12747806
172	0x3d07cf36	0.033156596
173	0x3c175e10	0.009238735
174	0xbdbda4f7	-0.0925998
175	0xbe12a267	-0.14319764
176	0xbe5bedef	-0.21477483
177	0x3d6c9686	0.057760738
178	0x3dafdfdc	0.0858762
179	0xbe1e78e5	-0.15475805
180	0x3e39fcd1	0.18162848
181	0x3de80757	0.11329525
182	0x3ebf7161	0.3739119
183	0x3d06383b	0.03276847
184	0x3eb3dbb6	0.35128564
185	0x3e4e8c12	0.2017062
186	0xbe9c1833	-0.30487213
187	0x3e309e2c	0.17247838
188	0x3c39705f	0.011318295
189	0x3da26a2c	0.07930407
190	0x3ddec133	0.108766936
191	0x3d82e426	0.06391172
192	0xbd3a0c0d	-0.04542165
193	0xbd840a73	-0.064473055
194	0xbe403faf	-0.18774293
195	0x3e3c1c2e	0.18370125
196	0x3de37cb3	0.11107769
197	0xbe54ec29	-0.20793213
198	0xbd7b0af0	-0.061289728
199	0x3e38141b	0.1797642
200	0x3daa172f	0.08305203
201	0x3df6197b	0.12016579
202	0xbeda4cff	-0.42636868
203	0xbe7e2f53	-0.2482274
204	0xbe1e8a2a	-0.15482393
205	0x3e588311	0.21143748
206	0xbd59052e	-0.052983455
207	0xbe0a8a06	-0.13529214
208	0x3e102f41	0.14080526
209	0x3ee59fe9	0.44848564
210	0xbe248360	-0.1606574
211	0x3e0cbc2f	0.13743661
212	0x3da130f1	0.07870663
213	0x3dc82781	0.0977316
214	0xbdce9839	-0.10087628
215	0xbda9778a	-0.082747534
216	0x3e4af4b4	0.1981991
217	0xbbcf689b	-0.0063296086
218	0xbdfeef17	-0.124479465
219	0x3d337471	0.04381222
220	0xbe110d9b	-0.14165346
221	0xbda8d3e6	-0.082435414
222	0x3e379b92	0.17930439
223	0x3da2360f	0.07920467
224	0xbe86d1a2	-0.26331812
225	0x3e193b39	0.14963998
226	0xbdd61948	-0.10454041
227	0x3e89b4c9	0.2689574
228	0xbe907331	-0.28212884
229	0x3e36aa02	0.1783829
230	0x3d43764e	0.047720246
231	0xbd6815ba	-0.056661345
232	0xbe860b0b	-0.261803
233	0xbe83202e	-0.2561049
234	0xbd25cd44	-0.04047896
235	0xbecd7da8	-0.4013493
236	0xbdfaf424	-0.122535974
237	0xbe38fd77	-0.18065439
238	0xbde6d20d	-0.11270533
239	0x3e81bc5c	0.2533902
240	0x3d2ff128	0.042954594
241	0xbdc3755c	-0.09543869
242	0xbda8c6e6	-0.08241062
243	0xbd4d4604	-0.0501156
244	0xbd2bdd67	-0.041959193
245	0x3db7c2a0	0.08972669
246	0xbd65f25a	-0.056139328
247	0x3c46c89c	0.01213279
248	0xbeb6a129	-0.3566983
249	0xbe5d7a99	-0.21628799
250	0x3e742dee	0.23845646
251	0xbd913546	-0.07090239
252	0xbedf5ab4	-0.43623888
253	0xbdb4947b	-0.08817383
254	0xbae64867	-0.0017569185
255	0x3d94374a	0.07237108

cnn_net.0.bias f4 [16]
0	0xbaf331ca	-0.0018554267
1	0xbcc5aab5	-0.024129251
2	0xbcc273f1	-0.023736926
3	0xbc88960a	-0.016673107
4	0xbca61247	-0.020272387
5	0xbcafcd95	-0.021460334
6	0xbd3a9a5b	-0.04555736
7	0xbbbc8495	-0.0057531097
8	0xbb52466e	-0.0032085436
9	0xbbecc714	-0.0072258804
10	0x3b246c2b	0.0025088887
11	0xbc25fafb	-0.010130639
12	0xbc9e2509	-0.01930477
13	0xbc4e3eeb	-0.012588243
14	0xbb5e57be	-0.003392681
15	0xbc85386d	-0.016262257

cnn_net.3.weight f4 [32, 16, 3, 3]
0	0xbc8da015	-0.017288247
1	0x3dfe7cb2	0.124261275
2	0x3bf9f6ba	0.007628289
3	0x3e3fae65	0.1871887
4	0xbcd0541e	-0.025430735
5	0x3e5816aa	0.21102396
6	0xbd79c0b9	-0.06097481
7	0xbc1b9698	-0.009496354
8	0xbd928e95	-0.071561016
9	0xbd1f96c9	-0.03896216
10	0xbde4ad16	-0.11165826
11	0xbe0710ff	-0.13190077
12	0xbd9a6aa4	-0.07539871
13	0x3d01819b	0.031617742
14	0xbd4f8c20	-0.050670743
15	0xbe75e141	-0.24011709
16	0xbdd6d072	-0.104889765
17	0xbe0147a0	-0.12624979
18	0xbe974e08	-0.2955172
19	0x3a29b3de	0.00064736407
20	0xbe03a7cc	-0.12856978
21	0x3cb89214	0.022530593
22	0x3e45d766	0.19320449
23	0xbd8c15be	-0.068400845
24	0xbbff3992	-0.0077888453
25	0xbb720940	-0.0036931783
26	0xbd37474d	-0.044745732
27	0x3d50cbfe	0.050975792
28	0x3c00c3eb	0.0078592105
29	0x3c8e3318	0.017358348
30	0xbe0fbbc9	-0.14036478
31	0x3e0fbccd	0.14036866
32	0xbdfe377b	-0.12412926
33	0x3d3aeb95	0.045634825
34	0x3e43779f	0.190886
35	0xbc531e78	-0.012885682
36	0xbd4c06f0	-0.049811304
37	0x3d9e373f	0.07725381
38	0xbd90d3a3	-0.070716165
39	0x3b33d0f9	0.002743779
40	0x3bf2757f	0.0073992605
41	0xbd15cf9f	-0.036574956
42	0xbd10153e	-0.035176508
43	0xbd93bfa8	-0.0721429
44	0xbb91b38f	-0.004446454
45	0x3ca0ec2b	0.019643864
46	0x3e38ab50	0.180341
47	0xbe1b1e0c	-0.1514818
48	0x3e07c00d	0.13256855
49	0xbdc68966	-0.096941754
50	0xbe661444	-0.22468668
51	0xbe005337	-0.12531744
52	0x3dd50cbb	0.10402819
53	0xbcbd799c	-0.023129277
54	0xbd6914cd	-0.056904603
55	0x3d2716c3	0.04079319
56	0xbe365014	-0.17803985
57	0x3c92bc1e	0.017911967
58	0x3cb7ce4d	0.022437239
59	0x3befc476	0.007317121
60	0xbe58de76	-0.21178612
61	0x3dc16a2e	0.0944408
62	0xbcb8e20f	-0.02256873
63	0x3cfd73b0	0.030938953
64	0x3e58d06f	0.21173261
65	0xbe5bed4f	-0.21477245
66	0x3db2647d	0.08710573
67	0xbdc0b0b1	-0.09408701
68	0x3d21cb7d	0.039500702
69	0x3df4b77a	0.11949058
70	0xbd675113	-0.056473803
71	0xbe484b04	-0.19559866
72	0x3d20eb92	0.039287157
73	0x3e17c730	0.14822078
74	0xbdb7c32a	-0.089727715
75	0x3d6e1fbe	0.05813574
76	0x3da57467	0.080788426
77	0xbdd4f183	-0.10397627
78	0xbd190e9c	-0.03736745
79	0x3d0cf0c5	0.034409303
80	0x3e0f6c06	0.14006051
81	0x3c3a66e0	0.011377066
82	0x39c818fb	0.00038165585
83	0xbd90e00d	-0.07073984
84	0x3b5f0c7c	0.003403454
85	0x3d90bbd7	0.070670776
86	0xbd9ece84	-0.077542335
87	0xbe0bb8d2	-0.13644722
88	0xbe0a10c0	-0.13482952
89	0xbd9fdefc	-0.07806203
90	0xbdc9acc1	-0.09847403
91	0x3d3b0db2	0.045667358
92	0x3e0c5e7c	0.13707918
93	0xbc80e16d	-0.015732491
94	0x3d3f9ada	0.046778537
95	0xbdbb2969	-0.09138758
96	0xbe38b129	-0.18036331
97	0x3e35a5f9	0.17739095
98	0xbe8eb70e	-0.27874035
99	0x3ded236e	0.11579023
100	0xbca4e7d9	-0.020130085
101	0x3d0e4d4f	0.034741696
102	0xbdb286ab	-0.08717092
103	0x3c8d4943	0.017246848
104	0xbda7f31f	-0.082006685
105	0xbdc6b5c1	-0.097026356
106	0xbe4219ae	-0.18955109
107	0x3deb7889	0.114976
108	0xbd2f9297	-0.04286441
109	0x3e0094dc	0.12556785
110	0xbe7ad3d9	-0.24494876
111	0x3cb66711	0.022265943
112	0xbd601b02	-0.054713257
113	0x3e2215d5	0.15828641
114	0x3d65a72f	0.05606764
115	0x3d85d2d2	0.065343514
116	0x3d385271	0.045000497
117	0xbd46746e	-0.04845088
118	0xbe2ca0af	-0.16858171
119	0xbe15bce4	-0.14622837
120	0x3e21d173	0.15802555
121	0xbe8c1340	-0.27358437
122	0x3a8a6daf	0.0010561253
123	0x3d963a8b	0.07335385
124	0x3d865d02	0.065607086
125	0x3e439256	0.19098791
126	0x3e4c24be	0.19935891
127	0x3e7d2c7d	0.24724002
128	0xbe165f1c	-0.14684719
129	0xbe7bdb58	-0.24595392
130	0x3e2858d0	0.1644013
131	0xbc862d06	-0.01637889
132	0x3e67c240	0.22632694
133	0xbcf04220	-0.029328406
134	0xbcb5b2b5	-0.02217994
135	0x3d4dce47	0.05024555
136	0xbd612f20	-0.054976583
137	0x3e055cef	0.13023733
138	0xbe3ea128	-0.18616164
139	0x3d64bee1	0.0558461
140	0xbe9134af	-0.28360507
141	0x3d85ea6b	0.06538852
142	0xbe1a6392	-0.15077046
143	0xbca0b803	-0.019618994
144	0xbe72e175	-0.23718818
145	0xbdd77c3e	-0.10521744
146	0x3c2e16b8	0.010625534
147	0xbb170023	-0.0023040853
148	0xbdc62de3	-0.09676721
149	0xbe119b70	-0.14219451
150	0xbd7d1184	-0.061784282
151	0x3de47784	0.11155608
152	0xbd77ea53	-0.060526203
153	0x3d54237c	0.051791653
154	0x3e185ffe	0.14880368
155	0x3c74de82	0.014945628
156	0xbe40106f	-0.18756269
157	0x3d3ed1c1	0.046586756
158	0xbe3a8e2c	-0.18218297
159	0x3e8297e6	0.25506514
160	0x3e089bcb	0.1334068
161	0xbbbc0cee	-0.005738846
162	0xbd7415d9	-0.059591148
163	0xbd9e2be1	-0.07723213
164	0x3e3c9140	0.18414783
165	0xbc945285	-0.018105755
166	0xbcb8590b	-0.022503396
167	0xbd1448ce	-0.036202244
168	0xbdd1dbfa	-0.10247035
169	0xbcada0f4	-0.021194912
170	0xbd2ddb24	-0.042445317
171	0x3d8bfc6b	0.06835254
172	0xbea74891	-0.3267255
173	0x3ce3d092	0.027809415
174	0xbb2b50d8	-0.0026140716
175	0xbd64b8d7	-0.05584034
176	0xbdf8c26d	-0.12146459
177	0xbd735fed	-0.059417654
178	0x3e269619	0.16268195
179	0xbe350ea9	-0.17681374
180	0x3e2de01a	0.16980019
181	0x3e93e567	0.28885958
182	0x3e8fbe34	0.280748
183	0x3c536f69	0.01290498
184	0x3dca76ad	0.09885917
185	0x3e0de0ba	0.13855258
186	0xbdb7c975	-0.08973972
187	0xbd85ef64	-0.06539801
188	0xbe33eb1a	-0.17570153
189	0x3d5ff6f1	0.05467886
190	0xbd10e633	-0.035375785
191	0xbd4701a6	-0.048585556
192	0xbdc67362	-0.09689976
193	0x3dfa638c	0.12226018
194	0xbd6e7f87	-0.05822709
195	0xbca6fcc9	-0.02038421
196	0xbdfcb575	-0.12339298
197	0xbbe8852b	-0.007095953
198	0x3bc667ec	0.006054869
199	0xbd2bdc56	-0.041958176
200	0xbe1e39f5	-0.15451796
201	0xbc79873d	-0.015229997
202	0x3e43a360	0.19105291
203	0xbd7fe277	-0.062471833
204	0x3df6b251	0.1204573
205	0x3dfb7650	0.12278426
206	0x3d92093a	0.07130666
207	0x3dc8dcb2	0.09807719
208	0x3d21e77e	0.03952741
209	0xbc458816	-0.012056371
210	0xb9551b83	-0.00020323512
211	0xbe1789ff	-0.14798735
212	0xbd8932d8	-0.06699151
213	0xbe059688	-0.13045704
214	0xbca5276c	-0.0201604
215	0x3df27812	0.11839308
216	0x3e97f839	0.29681566
217	0x3d396b6b	0.045268457
218	0x3c50c0e9	0.012741306
219	0x3e484154	0.1955617
220	0xbddadb80	-0.106863976
221	0xbe21f23c	-0.15815061
222	0xbd9f9ea9	-0.07793934
223	0x3d387df1	0.045041982
224	0x3b33dbfe	0.0027444358
225	0xbcd6b176	-0.026207667
226	0xbd1983c6	-0.037479185
227	0x3d0ecbf6	0.03486248
228	0xbe6bb674	-0.23018819
229	0xbe519f95	-0.20471032
230	0xbd5e5ff5	-0.05429073
231	0x3eb7b622	0.35881144
232	0x3d6422bc	0.055697188
233	0xbd202920	-0.03910172
234	0xbdb179aa	-0.08665784
235	0xbd31b9ef	-0.04339021
236	0x3d19e091	0.03756768
237	0xbd11e27f	-0.035616394
238	0x3c8a7e13	0.01690582
239	0x3e0f78e3	0.14010958
240	0xbda0ad4c	-0.07845554
241	0xbcb065a9	-0.02153285
242	0x3db69db9	0.08916802
243	0xbb9e279f	-0.0048265005
244	0x3cdfec08	0.027334228
245	0x3d7f03ce	0.062259488
246	0xbdad1d2c	-0.0845283
247	0x3e00b190	0.12567735
248	0x3d1d3541	0.038380865
249	0x3d82365d	0.06358025
250	0xbd6c608b	-0.057709258
251	0xbcdc77a6	-0.026912522
252	0xbdb3d7d8	-0.08781403
253	0x3e1f931a	0.15583459
254	0xbc29ff5f	-0.010375827
255	0x3dac265d	0.08405755

cnn_net.3.bias f4 [32]
0	0xbb788867	-0.00379231
1	0xbca5bef2	-0.020232651
2	0x3b162667	0.0022911073
3	0x3b513704	0.003192366
4	0xbb247ee3	-0.0025100044
5	0x3c03290a	0.00800539
6	0x3c8c9c6c	0.017164432
7	0x3b8702e3	0.004120217
8	0x3b031240	0.0019999892
9	0x3bb1b4d5	0.005423168
10	0x3bff0814	0.0077829454
11	0x3bade1be	0.0053064516
12	0xbb767488	-0.003760608
13	0xbcd5ddf6	-0.026106816
14	0xbadeb7e5	-0.0016992061
15	0x3ca883ad	0.0205706
16	0xbbc46c97	-0.00599439
17	0xbb1b94d5	-0.0023739834
18	0xbceaeb7a	-0.028676737
19	0x3c1fbb91	0.009749309
20	0xbaa95614	-0.001291933
21	0xbb3feae6	-0.0029284297
22	0xbc356136	-0.01107054
23	0xbd189cd3	-0.037258934
24	0x3b2ec872	0.0026669768
25	0xbbbe3fb3	-0.0058059334
26	0xbc733a58	-0.014845453
27	0x3a9f8d69	0.0012172881
28	0x3cd444bb	0.02591168
29	0xbc1b6cc3	-0.00948638
30	0xbc4be3cd	-0.012444449
31	0xbc0275d5	-0.007962664

hidden.weight f4 [32, 128]
0	0x3e064000	0.13110352
1	0xbe033942	-0.12814811
2	0xbd214855	-0.03937562
3	0x3c3d4ede	0.011554448
4	0xbd84369a	-0.06455727
5	0xba2d6f15	-0.0006615979
6	0xbdd9a66d	-0.10627446
7	0xbe11ebda	-0.14250126
8	0xbd853ea9	-0.06506092
9	0xbdeb83f2	-0.11499776
10	0x3dddf24d	0.10837231
11	0x3daaa2af	0.08331811
12	0xbccc567f	-0.024943588
13	0xbe215569	-0.15755238
14	0x3d658fc8	0.056045324
15	0x3db58c25	0.08864621
16	0xbdedb9ef	-0.1160773
17	0xbe53b6ed	-0.2067525
18	0xbe04a448	-0.12953293
19	0xbe08e277	-0.1336764
20	0xbde026af	-0.10944878
21	0xbe85dd74	-0.26145518
22	0xbc3d7c27	-0.011565245
23	0x3d8fb55e	0.07017015
24	0xbd0e4cad	-0.034741092
25	0xbdc41fa2	-0.09576346
26	0x3e6a1984	0.22861296
27	0x3dbf97c5	0.093551196
28	0xbd3933c9	-0.0452154
29	0xbdeb9a45	-0.11504034
30	0x3cd78598	0.02630882
31	0x3d4b28a0	0.04959929
32	0x3d12d83f	0.03585076
33	0x3c523838	0.012830786
34	0xbdfb1f68	-0.1226185
35	0x3c57a0ce	0.013160897
36	0x3e98fac6	0.29878825
37	0xbc9df740	-0.019282937
38	0xbbb6c812	-0.0055780495
39	0xbd45eb07	-0.048319843
40	0x3d530357	0.051516857
41	0xbe34c31e	-0.17652556
42	0xbaaef5f6	-0.0013348449
43	0xbc0324c0	-0.008004367
44	0x3cbd806d	0.023132527
45	0xbc410b47	-0.011782474
46	0xbd193287	-0.037401702
47	0xbd987c7a	-0.07445617
48	0xbd4a7f6c	-0.049437925
49	0xbd283e95	-0.041075308
50	0x3e521ba0	0.2051835
51	0xbe80c28f	-0.25148436
52	0x3e1725e5	0.1476055
53	0xbe038916	-0.12845263
54	0xbd740587	-0.059575584
55	0xbe13c701	-0.14431383
56	0x3e57e7a6	0.2108446
57	0xbdbe3b54	-0.0928866
58	0x3e1b7770	0.1518228
59	0xbb8506ed	-0.0040596635
60	0xbcdd0415	-0.026979486
61	0x3e3a411e	0.18188903
62	0x3da663ca	0.08124502
63	0xbe884ccd	-0.26621094
64	0x3cef1abb	0.02918755
65	0xbd22027d	-0.039553154
66	0xbe1829c6	-0.14859685
67	0x3cbb3203	0.022850996
68	0xbd442f8e	-0.047896914
69	0xbe0f890d	-0.14017124
70	0xbe70afb6	-0.23504528
71	0xbdac9578	-0.084269464
72	0x3dbe5410	0.092933774
73	0x3dc6b24f	0.097019784
74	0x3da73d71	0.08166016
75	0x3d8ab118	0.06772059
76	0xbdf76e4d	-0.12081585
77	0xbd48bef7	-0.049010243
78	0x3936a2d8	0.00017417537
79	0x3de326c2	0.11091377
80	0x3dcadd00	0.09905434
81	0xbe9386ef	-0.28813884
82	0x3db285ef	0.08716952
83	0x3ea8d5f0	0.3297572
84	0xbe50879d	-0.20364232
85	0x3da97e57	0.082760505
86	0xbdb586e1	-0.08863617
87	0x3d3c3552	0.045949288
88	0xbdbd6833	-0.0924839
89	0x3e111d25	0.14171274
90	0xbda2fe2c	-0.07958636
91	0x3bf368fc	0.0074282866
92	0xbcfadd1c	-0.030623011
93	0x3d9ec511	0.07752431
94	0xbd324216	-0.043520056
95	0xbd08bc44	-0.03338267
96	0x3d53d659	0.05171809
97	0x3dfc807f	0.12329196
98	0xbc4471d2	-0.0119900275
99	0xbea1698b	-0.31525835
100	0xbcd8b54b	-0.026453635
101	0x3d77b091	0.06047112
102	0x3d6dc751	0.05805141
103	0x3dfc5e7f	0.12322711
104	0xbe17b519	-0.14815177
105	0xbdde81ab	-0.10864576
106	0x3e9d3f43	0.30712327
107	0xbde9b6e8	-0.1141184
108	0xbe3a920c	-0.18219775
109	0xbe97d557	-0.29654953
110	0x3d691e16	0.056913458
111	0xbe5b88d9	-0.21438922
112	0x3c9f9f76	0.019485217
113	0x3dacc067	0.08435135
114	0x3e223adf	0.1584277
115	0x3e6479de	0.22312114
116	0xbd165af1	-0.036707822
117	0x39046179	0.00012624812
118	0xbe03f0cf	-0.1288483
119	0xbc356803	-0.011072162
120	0xbcefcd9c	-0.029272847
121	0x3e070a9b	0.1318764
122	0x3e6e302f	0.23260568
123	0x3d997870	0.07493675
124	0xbcf69637	-0.030100925
125	0xbc528124	-0.012848172
126	0x3d87aada	0.06624384
127	0xbe1c1570	-0.15242553
128	0x3db254f2	0.08707608
129	0x3c0321dd	0.008003679
130	0x3d523c59	0.051327083
131	0xbc4747b1	-0.012163089
132	0xbe882baa	-0.26595813
133	0xbd8c1157	-0.06839245
134	0x3e3f5e04	0.18688208
135	0xbe614ca3	-0.22001891
136	0x3da9af08	0.08285338
137	0x3e9add35	0.30246893
138	0xbdf35816	-0.118820354
139	0x3daf49c8	0.085589945
140	0x3e05f955	0.13083394
141	0xbe35fae4	-0.17771488
142	0xbe53afd8	-0.20672548
143	0xbe74e73f	-0.23916338
144	0xbd32503b	-0.043533545
145	0x3dd5a01d	0.1043093
146	0x3ca1e05a	0.0197603
147	0x3cb1391c	0.021633677
148	0x3e37da42	0.17954352
149	0xbe0f2a3b	-0.13980953
150	0x3cff6e35	0.03118048
151	0x3db00d01	0.0859623
152	0xbd48e8f5	-0.04905029
153	0xbe66d78e	-0.22543165
154	0xbe1cf569	-0.15327992
155	0xbea548da	-0.32282144
156	0xbc19d442	-0.009388985
157	0xbe64897c	-0.22318071
158	0xbd9626a4	-0.07331589
159	0x3e382b99	0.17985381
160	0xbcdb90aa	-0.02680238
161	0xbd92a1e9	-0.07159788
162	0x3cb8b0bc	0.022545211
163	0xbe846607	-0.2585909
164	0x3d6613f9	0.05617139
165	0x3cb288cf	0.021793751
166	0x3df62138	0.12018055
167	0xbdce9095	-0.100861706
168	0xbdacbc44	-0.08434346
169	0x3cedf55a	0.029047657
170	0xbdb12ff5	-0.08651725
171	0x3e190935	0.14944918
172	0xbdbab171	-0.091158755
173	0x3e3046ce	0.1721451
174	0x3e261027	0.16217099
175	0xbd7708b2	-0.060311027
176	0x3af3e1ab	0.0018606683
177	0x3ded8889	0.11598308
178	0xbd2cce0d	-0.042188693
179	0xbcbb199f	-0.022839366
180	0x3c7a3525	0.01527146
181	0x3daec178	0.08532995
182	0x3e708705	0.23489006
183	0xbc57a4a5	-0.013161813
184	0xbdcecc78	-0.10097593
185	0x3d2c719d	0.042100538
186	0x3d3e29ec	0.0464267
187	0x3bd962ba	0.0066340836
188	0x3e1764eb	0.14784591
189	0x3ce325b0	0.027727932
190	0x3d834d1e	0.06411193
191	0xbd13d9ad	-0.036096264
192	0xbd97c1b7	-0.07409995
193	0xbd4d47c6	-0.050117277
194	0xbd913f93	-0.07092204
195	0xbd049e7f	-0.032377716
196	0xbec1640b	-0.3777164
197	0x3e117d84	0.14208037
198	0xbe18f5b9	-0.14937486
199	0x3c93d437	0.018045528
200	0xbe836607	-0.25663778
201	0xbc8b7ef0	-0.017028302
202	0xbb0d8b01	-0.0021597745
203	0xbb8bf3e2	-0.0042710165
204	0xbd4298ca	-0.047508992
205	0xbe073da8	-0.13207114
206	0x3d913fda	0.07092257
207	0xbd2557e7	-0.040367033
208	0x3d384d6c	0.04499571
209	0xbd3fc973	-0.046822976
210	0xbd66890e	-0.05628305
211	0xbe59d557	-0.21272789
212	0xbd9a7bbf	-0.07543134
213	0xbe0945af	-0.13405488
214	0xbd2438e6	-0.040093325
215	0x3cb1ebb7	0.021718843
216	0x3a59f140	0.0008313842
217	0x3d6d56a4	0.057943955
218	0xbe1116cc	-0.14168853
219	0x3e4804e6	0.19533119
220	0xbc8642af	-0.01638922
221	0x3dc703af	0.097174995
222	0x3e23f837	0.16012655
223	0x3cce773e	0.025203343
224	0x3de26163	0.11053731
225	0x3b71fa66	0.003692293
226	0x3cf8431b	0.030305436
227	0xbdb5eb98	-0.088828266
228	0xbd044f96	-0.03230246
229	0xbe30c561	-0.17262794
230	0xbce632b1	-0.028100343
231	0xbe141030	-0.144593
232	0xbcd75488	-0.026285425
233	0xbd24c218	-0.040224165
234	0x3e2d2857	0.1690992
235	0x3d135df2	0.035978265
236	0xbd9b1e17	-0.075740986
237	0x3bfb7652	0.007674017
238	0xbe6ea510	-0.23305154
239	0xbda3799d	-0.0798218
240	0xbd9cd4b2	-0.07657756
241	0x3d74ff51	0.0598138
242	0x3c454c7e	0.012042163
243	0xbd988a40	-0.07448244
244	0xbcc6e58f	-0.024279384
245	0xbe41b9a1	-0.18918468
246	0xbd2ebce6	-0.042660616
247	0xbdaa2992	-0.0830871
248	0x3e8cbd0e	0.27487987
249	0xbb24c219	-0.0025140105
250	0x38dbde9b	0.00010484197
251	0xbd30ff40	-0.043212175
252	0xbea706d4	-0.32622397
253	0xbcc8a724	-0.024493761
254	0x3da9228c	0.082585424
255	0x3c875cfe	0.016523834

hidden.bias f4 [32]
0	0xbc6e035a	-0.014527166
1	0x00000000	0.0
2	0xbc8daa5a	-0.017293144
3	0x3ce7fea9	0.028319674
4	0x3bdfe855	0.006833116
5	0xbb0fb575	-0.0021928225
6	0x3d0cb7af	0.03435486
7	0xbb44d7d8	-0.003003588
8	0xbc38076f	-0.011232241
9	0xbc0409dd	-0.008058992
10	0xbc61031d	-0.013733652
11	0x3bdbf45a	0.0067124786
12	0xbbb9e9f5	-0.005673642
13	0xbc1afc24	-0.009459529
14	0xbb3796ad	-0.0028013394
15	0xbc459442	-0.012059273
16	0x3c1786a3	0.0092484085
17	0xbc1637f7	-0.0091686165
18	0xbc06a9df	-0.008219211
19	0x00000000	0.0
20	0xbbe9fd0b	-0.007140761
21	0xbbbdd9fd	-0.0057938085
22	0xbb909a8e	-0.0044129556
23	0x00000000	0.0
24	0xbbe3df5d	-0.006954117
25	0x3c47dc95	0.012198587
26	0x3b9087a5	0.0044107013
27	0xbbe74b13	-0.00705851
28	0x3b19ba6d	0.0023457066
29	0x00000000	0.0
30	0xbc032400	-0.008004189
31	0xbc2ab031	-0.010417984

out.weight f4 [1, 32]
0	0xbe80879a	-0.25103456
1	0xbd8f0073	-0.069825076
2	0x3e991394	0.2989775
3	0xbd95410f	-0.072877996
4	0xbe2e36e0	-0.1701312
5	0xbec6908e	-0.3878216
6	0xbd135fae	-0.03597992
7	0x3f1ac11d	0.6045092
8	0xbd4fd045	-0.05073573
9	0xbe561fa8	-0.20910513
10	0x3dc25de8	0.094905674
11	0xbdb88214	-0.090091854
12	0x3d5be325	0.05368342
13	0xbe0bc938	-0.13650978
14	0x3e892eea	0.26793605
15	0x3e49a43e	0.1969156
16	0xbe500c7a	-0.2031726
17	0xbe3281dd	-0.17432351
18	0xbe48367b	-0.19552033
19	0xbda8ddea	-0.08245452
20	0x3e628584	0.22121245
21	0x3f0a58d4	0.5404179
22	0xbe857e97	-0.26073143
23	0xbd72fa7b	-0.059320908
24	0x3e1a5b6d	0.15073939
25	0xbe19e3c1	-0.15028287
26	0xbd4ff0fa	-0.050766923
27	0x3df68880	0.12037754
28	0xbdd0b42d	-0.10190616
29	0x3d81b09c	0.06332514
30	0xbedee56d	-0.43534413
31	0x3e94c710	0.29058123
